src/backend/loss/model.pt (torch, 109797 bytes, 9 tensors)

net.0.weight f4 [32, 9, 5]
0	0x3dc4bfdb	0.09606906
1	0xbcae552e	-0.021280851
2	0x3d2101b5	0.03930827
3	0xbcfe1d61	-0.031019868
4	0xbe53a284	-0.20667464
5	0xbe3e8a29	-0.18607391
6	0xbe4d77a2	-0.20065168
7	0x3b101449	0.0021984747
8	0x3bc31754	0.0059537087
9	0x3e44765d	0.19185777
10	0x3e8bee1e	0.27330106
11	0x3b98dbb3	0.004664862
12	0xbe6e850b	-0.2329294
13	0xbea329c8	-0.31867814
14	0xbe59fcf4	-0.212879
15	0x3de13ff3	0.109985255
16	0x3e61182e	0.2198188
17	0x3d146027	0.03622451
18	0x3e4b2320	0.19837618
19	0xbe729a27	-0.23691617
20	0x3e70d9ed	0.23520632
21	0x3d9e79d7	0.07738083
22	0x3e15a0c8	0.14612114
23	0x3dec5b52	0.115408555
24	0x3c31e6f1	0.010858283
25	0x3d143c0d	0.03619008
26	0x3e1bea53	0.15226106
27	0x3dbc90ad	0.09207282
28	0x3e0c9ec4	0.1373244
29	0xbe01949b	-0.12654345
30	0x3cb9a6d1	0.022662552
31	0xbb3bcd6e	-0.0028656381
32	0x3c4bd016	0.012439748
33	0x3c598823	0.013277086
34	0x3da635f8	0.081157625
35	0x3d463ad6	0.048395954
36	0xbde5cd93	-0.11220851
37	0xbe11994d	-0.14218636
38	0xbd90a8b3	-0.07063427
39	0xbdbee382	-0.093207374
40	0x3e0070e3	0.12543063
41	0xbd53a5d1	-0.051671807
42	0x3badb2b2	0.005300843
43	0x3eaa532b	0.33266577
44	0x3eee7782	0.46575552
45	0xbcc1d295	-0.023659984
46	0xbd28b7fa	-0.04119108
47	0xbc8ff1f0	-0.01757142
48	0x3da5ce47	0.08095985
49	0xbdf329d6	-0.11873214
50	0xbd967452	-0.07346405
51	0x3e3fe57f	0.1873989
52	0x3e3797fe	0.17929074
53	0xbd374378	-0.044742078
54	0xbe7f0d63	-0.2490745
55	0xbdd98a51	-0.10622085
56	0xbe140cc0	-0.14457989
57	0xbd331b27	-0.043727066
58	0x3d9570b1	0.07296885
59	0x3e0fc8ac	0.14041394
60	0xbdd3d399	-0.103430934
61	0xbd3e515f	-0.04646432
62	0xbc072d92	-0.008250611
63	0xbe3ce961	-0.18448402
64	0xbe765f3a	-0.24059764
65	0xbead1e76	-0.33812302
66	0xbeab228e	-0.334248
67	0xbe175d7b	-0.14781754
68	0x3e383672	0.17989519
69	0x3ed84c2e	0.4224562
70	0xbc804158	-0.015656158
71	0xbd1150dc	-0.035477504
72	0x3e201a18	0.15634954
73	0x3d42678e	0.04746204
74	0x3e0103e7	0.12599145
75	0x3e42fac1	0.19040968
76	0x3da4579f	0.08024525
77	0x3d8f45a5	0.069957055
78	0x3ddedb16	0.10881631
79	0x3c543ab0	0.012953445
80	0x3e034405	0.12818916
81	0xbdf8f6a7	-0.1215642
82	0xbd423a68	-0.04741898
83	0xbd3d5988	-0.04622796
84	0xbdd4856b	-0.1037701
85	0xbddf0850	-0.10890257
86	0x3caa754c	0.020807885
87	0x3d95a1df	0.07306265
88	0x3daee2e6	0.08539371
89	0x3e7b69de	0.24552104
90	0xbea3d209	-0.31996182
91	0xbe899548	-0.26871705
92	0xbd55e653	-0.052221607
93	0xbd8528d7	-0.0650193
94	0xbe0a9afb	-0.13535683
95	0xbf3fcd16	-0.7492231
96	0xbf0afc99	-0.54291683
97	0xbe0af864	-0.13571316
98	0x3c0545c4	0.008134309
99	0x3e08797c	0.13327593
100	0xbe01782c	-0.12643498
101	0xbdd2af2c	-0.10287318
102	0xbaa1e2ed	-0.0012350954
103	0x3db5053d	0.0883889
104	0xbca269cf	-0.019825844
105	0xbe30fb99	-0.17283477
106	0x3dda4d7d	0.10659311
107	0x3d5aa3f8	0.05337903
108	0xbac5ab9a	-0.0015081048
109	0x3df84434	0.12122384
110	0xbe965f0b	-0.29369387
111	0x3cc0fa4a	0.023556847
112	0x3d5fc781	0.05463362
113	0x3d6b18e9	0.057396803
114	0x3e26c407	0.16285716
115	0xbdf8500f	-0.12124645
116	0xbdb261b8	-0.087100446
117	0xbdf6f82f	-0.12059056
118	0xbdeb823c	-0.114994496
119	0x3d426fda	0.04746995
120	0xbd09360b	-0.033498805
121	0xbdf0d7a3	-0.117598794
122	0x3d3aa160	0.045564055
123	0xbe03b225	-0.12860925
124	0xbc4048eb	-0.011736135
125	0xbd8574d8	-0.06516427
126	0xbe19f0dc	-0.15033287
127	0xbe002045	-0.1251231
128	0x3cf6006f	0.030029504
129	0x3ce3839f	0.027772723
130	0xbe09961f	-0.13436173
131	0xbe126f3f	-0.1430025
132	0xbe7bcb89	-0.24589361
133	0x3df14fed	0.11782823
134	0x3eb8d842	0.36102492
135	0x3e5ce4bf	0.21571635
136	0x3b90917c	0.0044118743
137	0x3d9d8bd7	0.07692688
138	0x3d1a0693	0.037603926
139	0xbde9dbb4	-0.11418858
140	0x3e5a0527	0.21291028
141	0x3e7ea616	0.24868044
142	0x3e04d28b	0.12970941
143	0xbdc7c5ca	-0.09754522
144	0xbebe855a	-0.37211114
145	0xbe34c6b2	-0.17653921
146	0x3dc53694	0.096295506
147	0x3e14ae30	0.14519572
148	0x3e89c535	0.2690827
149	0x3dcd944c	0.10038051
150	0xbdc32c37	-0.09529918
151	0xbe340581	-0.17580225
152	0xbdc3d534	-0.0956215
153	0x3e4088b6	0.18802151
154	0x3ebe6c31	0.37191918
155	0x3c2ff83e	0.010740338
156	0xbdd6b995	-0.10484616
157	0x3e2eaeb3	0.1705883
158	0x3e870769	0.2637284
159	0x3dacd816	0.084396526
160	0xbda00b05	-0.07814602
161	0xbd9bf2d1	-0.07614673
162	0xbe286c74	-0.16447622
163	0xbe106a0b	-0.14102952
164	0x3e11b719	0.14230002
165	0xbe312dcc	-0.17302626
166	0xbd9a9435	-0.075477995
167	0xbdbddf7f	-0.09271144
168	0x3de64bfb	0.11244961
169	0x3d189887	0.037254836
170	0x3e017fe9	0.1264645
171	0xbd2819cf	-0.041040238
172	0x3e43b0a4	0.19110352
173	0x3d913cd5	0.07091681
174	0xbd705dc9	-0.05868319
175	0xbe1a9bd4	-0.15098506
176	0xbe338e3e	-0.1753473
177	0xbbb939ed	-0.0056526572
178	0x3df65d18	0.12029475
179	0xbd86dd21	-0.06585146
180	0x3d2c0b7d	0.042003144
181	0x3c90e4e9	0.017687278
182	0xbd0f8e59	-0.035047863
183	0x3d355364	0.04426898
184	0xbd5f59a3	-0.054528844
185	0xbea54458	-0.32278705
186	0xbeaf4048	-0.3422873
187	0xbc7ac662	-0.015306087
188	0x3e074b0a	0.13212219
189	0x3db5271a	0.08845349
190	0x3dfebbde	0.124381766
191	0x3e678449	0.22609057
192	0x3e250673	0.16115741
193	0xbe3bcb3d	-0.18339248
194	0x3bd210b2	0.0064106816
195	0x3dca63f4	0.09882346
196	0x3d3db355	0.046313602
197	0xbdc877cf	-0.09788477
198	0x3cbe7e8d	0.023253703
199	0xbcdb021f	-0.02673441
200	0x3ebeefce	0.3729233
201	0x3eddd653	0.4332758
202	0x3d1c8cd4	0.03822024
203	0xbec02c97	-0.3753402
204	0xbf1055e2	-0.56381047
205	0xbe29cb5b	-0.1658148
206	0xbdcd15d3	-0.10013928
207	0xbd07dd75	-0.033170182
208	0xbc039d0b	-0.008033047
209	0x3da865b4	0.08222523
210	0xbccc045f	-0.024904428
211	0x3d581d1e	0.052762143
212	0xbd61a008	-0.05508426
213	0x3e2b4cd0	0.1672852
214	0x3d81561a	0.06315251
215	0x3b4738fc	0.0030398956
216	0x3df9a2d7	0.12189262
217	0x3db41b46	0.087942645
218	0x3d77d510	0.060505927
219	0xbc0b070d	-0.008485568
220	0x3e2ec456	0.17067084
221	0x3e3b37cd	0.18283005
222	0x3dd522b7	0.10407012
223	0x3be13b9f	0.0068735625
224	0xbe5a5501	-0.21321489
225	0xbe2a7dcf	-0.16649555
226	0x3d8511e7	0.06497555
227	0x3d74fc05	0.059810657
228	0xbca23a38	-0.019803151
229	0xbd4b7d94	-0.049680308
230	0xbee69605	-0.4503633
231	0xbe2c441d	-0.16822858
232	0x3d70f4d0	0.05882722
233	0x3e8b8b87	0.27254888
234	0x3edcd182	0.43128592
235	0x3c038de8	0.008029439
236	0x3d7c621d	0.061617006
237	0xbbec2e4d	-0.007207668
238	0x3e3d4785	0.18484314
239	0x3d2d1013	0.042251658
240	0xbe1aac85	-0.15104873
241	0xbcc291cf	-0.023751168
242	0xbb81c707	-0.0039604935
243	0x39066ba0	0.0001281933
244	0xbb614209	-0.0034371635
245	0x3e0791a6	0.13239154
246	0xbe1f8afe	-0.15580365
247	0xbe56ed5b	-0.20988981
248	0x3cdd913c	0.027046792
249	0x3ecf1bc7	0.4045088
250	0x3e773ec1	0.24145032
251	0x3e154068	0.1457535
252	0x3d465c45	0.04842784
253	0x3dd8b434	0.10581246
254	0xbe8d5f48	-0.27611756
255	0xbba1cadd	-0.0049375133

net.0.bias f4 [32]
0	0xbe271b7c	-0.16319078
1	0xbe37012d	-0.17871542
2	0xbe09fe60	-0.13475943
3	0xbdf85251	-0.121250756
4	0x3cf823e0	0.030290544
5	0x3ce58aa5	0.028020212
6	0xbea55c4d	-0.32296982
7	0xbeb4c2c2	-0.35304838
8	0xbdfbb8ed	-0.12291131
9	0x3dbf3f9f	0.09338307
10	0x3dc1e7a3	0.09468009
11	0xbf0e4b9b	-0.55584115
12	0x3de99a5d	0.114063956
13	0xbce885e4	-0.028384157
14	0x3c7a4ff2	0.0152778495
15	0xbdc30056	-0.095215484
16	0xbe41d8cb	-0.18930356
17	0xbdaadda3	-0.08343055
18	0xbe53a34b	-0.2066776
19	0xbed5f727	-0.41790125
20	0xbe312b23	-0.17301612
21	0xbe05bc1d	-0.13060041
22	0x3dbd192b	0.09233316
23	0xbd921dd3	-0.07134595
24	0xbe972e57	-0.29527542
25	0xbd0034fd	-0.031300534
26	0xbe4d19c1	-0.20029356
27	0xbd26a10f	-0.04068094
28	0xbd0e32d3	-0.03471644
29	0xbe197808	-0.14987195
30	0xbe239890	-0.15976167
31	0xbe6aeba4	-0.22941452

net.2.weight f4 [64, 32, 5]
0	0x3e311fc4	0.17297274
1	0x3d989eb4	0.07452145
2	0xbd373ee0	-0.044737697
3	0xbe142344	-0.14466578
4	0xbdb906e0	-0.090345144
5	0xbe928294	-0.28615248
6	0xbea879e3	-0.32905492
7	0xbeacc95d	-0.33747378
8	0xbe84e706	-0.25957507
9	0xbe5f2dd8	-0.21794832
10	0x3d7359c4	0.05941178
11	0xbcadedb6	-0.021231513
12	0x3d1f036d	0.038821626
13	0xbc2fca91	-0.010729448
14	0xbdbfc758	-0.09364194
15	0xbe1ac288	-0.1511327
16	0xbcc67b50	-0.024228722
17	0x3d19a116	0.03750714
18	0xbd47df1d	-0.04879676
19	0xbd31eda4	-0.043439522
20	0xbe05f379	-0.13081159
21	0xbe232b6c	-0.15934533
22	0xbe6ae0fd	-0.22937389
23	0xbe1696d6	-0.14705977
24	0xbd483771	-0.048880998
25	0x3d71f72a	0.059073605
26	0x3d3f1bf8	0.046657532
27	0xbcf181be	-0.029480811
28	0xbe36aab5	-0.17838557
29	0xbed8185e	-0.4220609
30	0xbddda55e	-0.10822557
31	0xbd8c7309	-0.06857879
32	0xbe71ed15	-0.23625596
33	0xbed1189c	-0.40839088
34	0xbef84356	-0.48488873
35	0x3dc25586	0.094889686
36	0xbc9f5a20	-0.019452155
37	0x3d0af578	0.033925503
38	0x3df79af7	0.12090104
39	0x3e1d3a31	0.1535423
40	0x3da8dcb8	0.08245224
41	0x3e044645	0.1291743
42	0x3e23c01a	0.1599125
43	0x3e33d394	0.1756118
44	0x3df0b68c	0.11753568
45	0x3c44decb	0.012016009
46	0x3d85f57f	0.06540965
47	0x3df3fb7f	0.119132034
48	0x3e19cd4e	0.15019724
49	0x3d9c1bb9	0.07622475
50	0xbd7891b4	-0.06068583
51	0x3dcd3c28	0.100212395
52	0x3e269de6	0.16271171
53	0x3e01c81f	0.12673996
54	0x3e0f0c99	0.1396965
55	0xbdc912e2	-0.09818055
56	0xbe80505f	-0.25061318
57	0xbe60a9be	-0.21939752
58	0xbe2d4770	-0.16921782
59	0xbe52653f	-0.20546435
60	0xbf18dcf4	-0.5971215
61	0xbea35bec	-0.31906068
62	0xbe2f8f63	-0.17144541
63	0xbe06e701	-0.13174058
64	0xbd933c21	-0.07189203
65	0x3db36f31	0.087614425
66	0x3cdcae2e	0.026938524
67	0x3bc58257	0.0060275006
68	0x3d810106	0.06299023
69	0xbbe1f26d	-0.0068953545
70	0xbdefe060	-0.11712718
71	0xbda8dc68	-0.08245164
72	0xbabad8b1	-0.0014255253
73	0x3d82540d	0.06363688
74	0x3c95a50f	0.018267183
75	0xbe44ae1b	-0.19207041
76	0xbdf3f695	-0.11912266
77	0xbbb5e1e1	-0.0055506085
78	0x3d6029ac	0.05472724
79	0x3df0161d	0.11722968
80	0xbe854c91	-0.26034978
81	0xbe0ff543	-0.14058404
82	0xbc7b9101	-0.015354396
83	0x3d531fa6	0.051543854
84	0x3e4f5060	0.20245504
85	0xbe589c8c	-0.21153468
86	0xbe040fd0	-0.12896657
87	0x3cb24acd	0.021764183
88	0x3caeb955	0.021328608
89	0x3e0a1814	0.13485748
90	0xbda1128e	-0.07864867
91	0xbdc72ac6	-0.09724955
92	0xbda9e3d5	-0.08295409
93	0x3dc71ea9	0.09722645
94	0x3da9ab6a	0.08284648
95	0xbdb09c49	-0.08623559
96	0xbd3cea1e	-0.04612171
97	0xbd72e7be	-0.059303038
98	0xbc0ac10d	-0.008468878
99	0x3dc6b38c	0.097022146
100	0xbe4634d8	-0.19356096
101	0xbc9999e7	-0.018750144
102	0x3e0956d2	0.13412026
103	0x3de3fe3d	0.111324765
104	0x3d15b065	0.036545176
105	0x3d9e01cb	0.07715186
106	0xbc9dcb82	-0.01926208
107	0x3d1852f6	0.037188493
108	0xbcd7c4b6	-0.026338916
109	0x3dd292fc	0.10281941
110	0xbe545859	-0.20736827
111	0xbdfce894	-0.12349048
112	0xbd1d0f76	-0.038344823
113	0xbe1ac757	-0.15115105
114	0xbdfa3fe4	-0.122192174
115	0xbe1781ae	-0.14795563
116	0xbe6b3f87	-0.22973453
117	0xbe709ebe	-0.23498055
118	0xbe6b0b25	-0.2295347
119	0xbec1b0b3	-0.37830123
120	0x3e2f0b81	0.17094232
121	0x3e08603b	0.13317959
122	0x3e077f08	0.13232052
123	0x3d8fd69d	0.07023356
124	0x3dc71efd	0.097227074
125	0x3d2841da	0.041078426
126	0x3d1cb38a	0.03825716
127	0x3df799c3	0.120898746
128	0x3e478f90	0.19488358
129	0x3e635a20	0.22202349
130	0x3d817ebe	0.06323002
131	0xbdb7a1f4	-0.08966437
132	0xbe493a96	-0.19651255
133	0xbeaea536	-0.3411042
134	0xbea2b69d	-0.31779948
135	0xbca50c0b	-0.020147344
136	0xbe29f7c4	-0.16598421
137	0xbdcfb5e6	-0.10142116
138	0xbe28c084	-0.16479689
139	0xbd75cef0	-0.060011804
140	0x3ded7da2	0.11596228
141	0x3c6bf112	0.014400737
142	0x3d12476c	0.035712644
143	0x3d16ed09	0.036847148
144	0x3dfa72a2	0.12228896
145	0xbe403b45	-0.1877261
146	0xbdf80a45	-0.12111334
147	0xbdbb1d4e	-0.09136449
148	0xbdc2ede7	-0.095180325
149	0xbdb07920	-0.08616853
150	0xbe7f2212	-0.2491534
151	0xbe9ae031	-0.3024917
152	0xbe35e6b3	-0.17763786
153	0xbbf8b006	-0.007589343
154	0x3d405370	0.046954572
155	0x3d16567c	0.03670357
156	0x3c0bdee0	0.008537024
157	0xbdbd7e8f	-0.09252655
158	0xbe1363aa	-0.14393488
159	0xbe6351f8	-0.22199237
160	0xbd872398	-0.06598586
161	0xbbb8c46a	-0.0056386488
162	0xbd2f45a8	-0.04279104
163	0xbd857f81	-0.0651846
164	0xbddbb701	-0.107282646
165	0xbc49700e	-0.012294782
166	0x3c447daf	0.011992856
167	0xbd15a32c	-0.036532566
168	0xbdd132ba	-0.102147534
169	0xbe235739	-0.15951242
170	0xbe015122	-0.12628606
171	0x3cbea28e	0.023270871
172	0x3d429599	0.04750595
173	0x3d1e1472	0.038593717
174	0xbda641c8	-0.081180155
175	0x3d221ef9	0.03958032
176	0x3dc0f194	0.09421077
177	0xbc114f62	-0.008869024
178	0xbdeeb773	-0.11656084
179	0xbe689fb0	-0.22717166
180	0xbe82b0f4	-0.2552563
181	0xbe136dd8	-0.14397371
182	0xbd2f3ec0	-0.042784452
183	0x3d98ddc2	0.07464172
184	0x3e37a2fe	0.1793327
185	0xbdb0e617	-0.08637636
186	0x3d6fa2e3	0.05850495
187	0x3d3ad2b5	0.045611102
188	0x3dab4188	0.083621085
189	0x3d788b6d	0.06067984
190	0xbe7ea76a	-0.24868551
191	0xbe741b26	-0.23838481
192	0x3d37a0fe	0.04483127
193	0x3dbff05b	0.09372016
194	0x3d693781	0.0569377
195	0xbe0e3407	-0.13887034
196	0xbda1479c	-0.078749865
197	0x3d0db3a0	0.034595132
198	0x3bd42aaf	0.006474815
199	0x3d71bfcf	0.059020814
200	0xbe6a64c5	-0.22890003
201	0xbe313811	-0.17306544
202	0xbc6d511d	-0.014484671
203	0x3ba0798f	0.0048973034
204	0x3e303cf1	0.17210747
205	0xbd095af5	-0.03353401
206	0xbe1f1083	-0.15533642
207	0xbddea352	-0.10870995
208	0xbe75835e	-0.23975894
209	0xbe82aebd	-0.2552394
210	0xbd9804ea	-0.07422812
211	0xbebc71c5	-0.3680555
212	0xbed80843	-0.42193803
213	0xbece7ec2	-0.40331084
214	0xbe1f6b33	-0.15568237
215	0xbd6ee702	-0.058325775
216	0xbe257e9a	-0.16161576
217	0xbe95c30e	-0.29250377
218	0xbd20a847	-0.03922298
219	0x3d0ce680	0.03439951
220	0x3df0467e	0.11732195
221	0xbd14c212	-0.036317892
222	0xbe19dfa9	-0.15026726
223	0xbe447ccf	-0.19188236
224	0xbdba4510	-0.09095204
225	0xbe3935bc	-0.18086904
226	0xbe266587	-0.16249667
227	0xbe1fb636	-0.15596852
228	0xbcb293a4	-0.021798916
229	0xbd0d9ed9	-0.034575317
230	0xbd012781	-0.031531814
231	0xbd1468af	-0.036232647
232	0xbd1138db	-0.035454612
233	0xbd86fb78	-0.065909326
234	0xbd354b6f	-0.044261392
235	0x3d1e81b8	0.03869793
236	0x3d99bf40	0.07507181
237	0x3da5ff46	0.0810533
238	0xbe157b77	-0.1459788
239	0xbded9f71	-0.11602677
240	0x3da3e379	0.08002371
241	0xbaa8ae89	-0.0012869398
242	0x3bab0362	0.005218909
243	0xbd80e5de	-0.06293844
244	0xbda8fd7e	-0.08251475
245	0xbe8d55ce	-0.27604526
246	0xbe7bbc0d	-0.24583454
247	0xbd91602a	-0.0709842
248	0x3e2ebe80	0.17064857
249	0x3e861cbd	0.261938
250	0xbd3c5389	-0.045978103
251	0x3c5851b7	0.013203076
252	0x3e01e909	0.12686552
253	0x3dc259ec	0.094898075
254	0x3db79bd7	0.08965271
255	0x3d95fa19	0.07323093

net.2.bias f4 [64]
0	0x3d158d68	0.03651181
1	0x3dcaa5f6	0.09894936
2	0xbd785fdb	-0.06063829
3	0xbe0403e3	-0.12892108
4	0xbe714984	-0.235632
5	0x3bd0377d	0.006354271
6	0x3e1e5b6c	0.15464562
7	0x3dc86698	0.09785193
8	0x3c7aace3	0.0153000085
9	0x3d8f3859	0.06993169
10	0xbd637652	-0.05553276
11	0xbe9caf94	-0.30602705
12	0x3de2812a	0.11059792
13	0x3e074e42	0.13213447
14	0xbcebf6f4	-0.02880428
15	0x3e04be6b	0.12963264
16	0x3d24c67f	0.040228363
17	0x3d56996a	0.0523924
18	0xbe66054a	-0.22462955
19	0xbc850107	-0.016235841
20	0x3c4d0e06	0.0125155505
21	0xbe941d88	-0.2892878
22	0xbc0b03eb	-0.008484821
23	0xba202a8e	-0.0006109857
24	0xbdd3e8ed	-0.103471614
25	0xbdb71860	-0.08940196
26	0xbe672156	-0.2257131
27	0x3d926c38	0.07149547
28	0xbda40b54	-0.08009973
29	0x3d697edd	0.057005752
30	0xbd974b18	-0.0738737
31	0xbe12933d	-0.1431398
32	0xbd1483a9	-0.036258373
33	0xba80d8c6	-0.0009830229
34	0xbe1f7c75	-0.1557482
35	0xbe33c2aa	-0.17554727
36	0x3d87e324	0.066351205
37	0xbe71fc64	-0.23631436
38	0xbd87b665	-0.06626586
39	0x3e317e59	0.17333354
40	0xbdd0b391	-0.101904996
41	0x3c7ccd70	0.0154298395
42	0xbd97d6eb	-0.07414039
43	0x3c833c70	0.01602003
44	0x3df37b7e	0.11888789
45	0xbece41a9	-0.4028447
46	0xbe0c99ba	-0.13730517
47	0xbe74ebb7	-0.23918043
48	0x3d9012b3	0.070348166
49	0xbdc91765	-0.09818915
50	0xbcf42586	-0.029803049
51	0x3c908fb4	0.017646648
52	0xbd3cc0ac	-0.046082184
53	0x3c2b9866	0.010473346
54	0x3e2e36c9	0.17013086
55	0x3df95050	0.121735215
56	0x371f53c0	9.496638e-06
57	0xbf09c2d9	-0.5381294
58	0xbd4c2861	-0.049843196
59	0xbed03c71	-0.40671113
60	0x3d2cf615	0.04222687
61	0x3d501bd2	0.05080778
62	0xbd9fc74f	-0.07801687
63	0x3e233c7c	0.15941042

net.4.weight f4 [64, 64, 3]
0	0x3d17cb77	0.037059274
1	0x3d2ee4a3	0.042698514
2	0x3cbba0d4	0.022903837
3	0xbd2296ae	-0.03969448
4	0x3e22cff4	0.1589964
5	0x3e21ee0a	0.15813461
6	0x3e236688	0.15957081
7	0x3da6bdd1	0.08141673
8	0x3db64abc	0.08900973
9	0xbdfaf795	-0.12254254
10	0xbe12e27d	-0.14344211
11	0xbe8b4297	-0.27199242
12	0x3e490881	0.1963215
13	0x3decd4bf	0.115640156
14	0x3e88cb7c	0.26717746
15	0xbe364590	-0.17799973
16	0x3d0d1b02	0.034449585
17	0x3de8ee79	0.1137361
18	0x3d792505	0.06082632
19	0xbcb4acd0	-0.02205506
20	0xbde492fd	-0.11160848
21	0x3de050d8	0.1095292
22	0x3daa3d83	0.08312514
23	0x3dcc7359	0.09982938
24	0xbe1cd797	-0.15316616
25	0xbd54d5e4	-0.051961794
26	0x3bcf188c	0.006320065
27	0x3d5f7272	0.054552503
28	0x3ba2fadf	0.004973754
29	0x3d676ada	0.056498386
30	0xbd057db5	-0.032590587
31	0xbd8ef965	-0.06981162
32	0xbeb5b45b	-0.35489163
33	0xbe44b241	-0.19208623
34	0xbec70a1c	-0.388749
35	0xbeb848f2	-0.35993153
36	0xbda260f0	-0.079286456
37	0xbcf4c0a5	-0.029877016
38	0xbcc5c101	-0.024139883
39	0x3d8bfefd	0.068357445
40	0x3c5abf09	0.01335121
41	0x3e01900f	0.1265261
42	0x3e86c324	0.26320755
43	0x3e2ea94c	0.17056769
44	0x3e33fdd9	0.17577304
45	0xbdada266	-0.08478241
46	0xbcc5e15b	-0.02415531
47	0xbdca1d9a	-0.09868927
48	0xbe68c8cf	-0.22732852
49	0xbdb82c62	-0.0899284
50	0xbdaded9c	-0.08492586
51	0xbc3b1417	-0.011418364
52	0x3d107c83	0.035274994
53	0x3e002cda	0.1251711
54	0x3d4f2b3b	0.050578337
55	0x3c85b600	0.016322136
56	0xbdc2ba45	-0.09508184
57	0x3de9262f	0.11384236
58	0x3e082072	0.13293627
59	0x3dc3fc92	0.09569658
60	0xbe7a53ba	-0.24446002
61	0xbe0a319c	-0.13495487
62	0xbdb6cbc2	-0.089255825
63	0x3dc85a5b	0.09782859
64	0x3df0bb18	0.11754435
65	0x3e667948	0.22507203
66	0xbda24299	-0.07922859
67	0xbca8d7c2	-0.020610694
68	0x3de19a4e	0.110157594
69	0x3e166a52	0.14688995
70	0x3e143356	0.14472708
71	0x3e003aa7	0.12522374
72	0x3cf334d4	0.029688276
73	0xba90d48c	-0.0011049672
74	0x3c00b275	0.0078550475
75	0x3df48d42	0.11941005
76	0x3e8d9d2b	0.27658972
77	0x3e275471	0.16340806
78	0x3e623fe4	0.22094685
79	0x3e575d43	0.2103167
80	0x3e38d8d5	0.18051465
81	0xbb9d6844	-0.004803689
82	0xbdae1cf6	-0.085016176
83	0xbe889722	-0.26677805
84	0xbda773f1	-0.08176411
85	0xbca79a88	-0.020459428
86	0xbc87fc20	-0.016599715
87	0xbe9812d7	-0.29701874
88	0xbe3fafb0	-0.18719363
89	0xbdf8249c	-0.12116358
90	0x3dcc1b2a	0.09966119
91	0xbb99902a	-0.004686375
92	0xbbfff53c	-0.0078112166
93	0x3f363d17	0.71186966
94	0x3ed0e92f	0.40802905
95	0x3edd3d39	0.43210772
96	0xbe0e3adf	-0.13889645
97	0xbeb27fa8	-0.3486302
98	0xbec3abdb	-0.38217053
99	0xbe07f613	-0.13277464
100	0xbd05ca3c	-0.03266357
101	0xbc63afe8	-0.01389692
102	0xbdd2f181	-0.102999695
103	0xbe4de747	-0.20107757
104	0xbdd3d25e	-0.10342859
105	0x3d94eb8f	0.07271492
106	0x3d110ce2	0.035412677
107	0xbdc6fdb2	-0.09716357
108	0x3ea1def6	0.31615418
109	0x3e85813a	0.26075155
110	0x3e7e059d	0.24806829
111	0xbe72a204	-0.23694617
112	0xbe7295e3	-0.2368999
113	0xbec9138d	-0.3927273
114	0x3dc45c1c	0.09587881
115	0x3dbd2d0a	0.09237106
116	0x3e13a787	0.14419375
117	0x3e544a8c	0.20731562
118	0x3dd42831	0.103592284
119	0x3da042a5	0.078252114
120	0xbb8d6898	-0.004315447
121	0x3b89a9e7	0.004201162
122	0xbcf1e1ed	-0.029526675
123	0x3e0a8a2d	0.13529272
124	0xbc76fb12	-0.015074508
125	0xbd1946ef	-0.037421163
126	0xbe8b848a	-0.27249557
127	0xbe9432bc	-0.28944957
128	0xbf0a5faa	-0.5405222
129	0xbe4328cd	-0.19058533
130	0xbe192aad	-0.14957686
131	0xbe410594	-0.18849784
132	0xbd94ad38	-0.07259601
133	0xbdaada3a	-0.08342405
134	0xbd314599	-0.043279264
135	0xbde3bff5	-0.11120597
136	0x3b2acb0c	0.0026060967
137	0x3e0fcab3	0.14042167
138	0x3e851ad2	0.25997025
139	0x3e82e0b8	0.25562072
140	0x3e2fd34e	0.1717045
141	0xbe262e7a	-0.16228667
142	0xbe76285d	-0.24038835
143	0xbe991334	-0.29897463
144	0x3d3c46e5	0.045966048
145	0x3d260f12	0.040541716
146	0x3d891fb2	0.066954985
147	0xbd329bd5	-0.043605644
148	0xbb52132e	-0.003205489
149	0xbddb8b83	-0.10719969
150	0x3d9ab1ef	0.075534694
151	0xbcc7105d	-0.024299795
152	0xbdd068fe	-0.10176276
153	0xbda3bb3e	-0.07994698
154	0xbe5a9e0b	-0.21349351
155	0xbe389218	-0.1802448
156	0x3e72be41	0.23705389
157	0x3e80fee3	0.25194463
158	0x3e2db610	0.16963983
159	0xbec6ee7d	-0.38853827
160	0xbe9f24e8	-0.31082845
161	0xbe970d04	-0.29502118
162	0xbe364f5d	-0.17803712
163	0xbe9cd436	-0.30630654
164	0xbe67b7b5	-0.22628672
165	0xbdbc9e1f	-0.09209847
166	0xbbba330a	-0.005682354
167	0x3cc801d0	0.024414927
168	0x3cc00ece	0.02344456
169	0xbd1f2d8b	-0.038861793
170	0x3d99f995	0.07518307
171	0xbd37165b	-0.044699054
172	0x3cf60528	0.030031756
173	0xbda21104	-0.07913402
174	0x3de07d51	0.10961402
175	0x3de61fcc	0.112365335
176	0xbd3a739f	-0.04552042
177	0xbe7aebf8	-0.24504077
178	0xbe87d751	-0.2653146
179	0xbea8cdc6	-0.32969493
180	0x3e5e14e5	0.21687658
181	0x3dbd6ccd	0.09249268
182	0xbd0205f3	-0.031743955
183	0x3e30925c	0.17243332
184	0x3d5b19d1	0.053491417
185	0x3e03a5c3	0.12856202
186	0xbe4eb4d1	-0.20186163
187	0xbdae2ff9	-0.08505244
188	0xbd6dfd81	-0.05810309
189	0xbe27d85d	-0.1639113
190	0xbe2465e2	-0.1605449
191	0xbe08e39e	-0.13368079
192	0xbe30ff58	-0.17284906
193	0x3d2d2951	0.04227573
194	0x3de2ad04	0.11068156
195	0xbe456351	-0.19276167
196	0xbe012dde	-0.12615153
197	0x3c339404	0.010960583
198	0xbdd7e077	-0.1054086
199	0xbdc2d7b4	-0.09513798
200	0xbe5bcc0c	-0.21464556
201	0xbe8ab228	-0.27089047
202	0xbea20b44	-0.3164922
203	0xbe9a0db6	-0.30088586
204	0x3d914e1e	0.07094978
205	0x3e07ea23	0.1327291
206	0x3e2b7680	0.16744423
207	0xbea1244d	-0.31473008
208	0xbdd7224a	-0.10504587
209	0xbd002597	-0.03128585
210	0x3e21a084	0.15783888
211	0x3d551e47	0.052030828
212	0xbe182ba9	-0.14860405
213	0xbf111938	-0.56679106
214	0xbeb60c7f	-0.3555641
215	0xbe656b3a	-0.22404185
216	0xbe8bb571	-0.27286866
217	0xbe99999e	-0.30000013
218	0xbd721ed2	-0.059111424
219	0x3e979518	0.29605937
220	0x3e1ae58c	0.15126628
221	0x3dca95eb	0.09891876
222	0xbdd75b6f	-0.105154864
223	0x3b926140	0.0044671595
224	0x3d40a0b8	0.047028273
225	0x3e56243a	0.20912257
226	0x3e5a9bd5	0.21348508
227	0x3e1ef2b8	0.15522277
228	0xbd0707cc	-0.03296642
229	0x3e180514	0.14845687
230	0x3d93d4aa	0.07218297
231	0xbe137b9e	-0.14402625
232	0xbe28248f	-0.16420196
233	0xbe3d5ad0	-0.18491673
234	0x3db30572	0.08741273
235	0x3d928552	0.07154335
236	0x3e0edc9d	0.13951345
237	0xbe3ab366	-0.18232498
238	0xbdfad909	-0.122484274
239	0xbd34c854	-0.04413636
240	0xbddf19d4	-0.10893598
241	0xbd0f5842	-0.03499628
242	0x3cf1ef78	0.029533133
243	0xbdec7707	-0.1154614
244	0xbdec37c4	-0.11534074
245	0xbd181f52	-0.037139244
246	0xbeff8b6c	-0.49911058
247	0xbef229e6	-0.4729759
248	0xbdcdeed8	-0.100553215
249	0xbe8ca8bb	-0.2747248
250	0xbe0a5b85	-0.13511474
251	0xbb08bb2c	-0.0020863516
252	0xbed83881	-0.4223061
253	0xbec68491	-0.38773015
254	0xbe7bb385	-0.245802
255	0xbe2c8387	-0.16847049

net.4.bias f4 [64]
0	0xbcb317e8	-0.021861985
1	0xbbb9ed39	-0.005674031
2	0x3e0f8716	0.14016375
3	0xbd57fef4	-0.052733377
4	0x3e310490	0.17286897
5	0x3dd93366	0.106055066
6	0xbc7211eb	-0.01477478
7	0x3d83d7c9	0.06437642
8	0x3cfbb044	0.030723698
9	0x3d900a84	0.07033256
10	0x3bf0d58f	0.007349677
11	0xbd6cf636	-0.057851993
12	0x3d295cca	0.041348256
13	0x3c637c45	0.013884609
14	0xbe29629c	-0.16541523
15	0xbd687e4c	-0.05676107
16	0xbc97aa2e	-0.018513765
17	0xbc4ab8c6	-0.012373155
18	0x3d4c49da	0.049875118
19	0x3dc2a910	0.09504902
20	0x3d1b22d7	0.037875023
21	0x3cbf0cab	0.02332147
22	0xbea3452d	-0.31888714
23	0x3c13a5c8	0.009011693
24	0x3dfd6f27	0.12374716
25	0xbdce541b	-0.100746356
26	0xbe9549b0	-0.29157782
27	0x3d2f5965	0.042809863
28	0xbcafb8e5	-0.02145047
29	0xbe81ed52	-0.25376374
30	0x3cd0867d	0.025454754
31	0x3d0cc70b	0.03436951
32	0xbb911081	-0.0044270162
33	0x3ca1b0dc	0.019737653
34	0xbda7e396	-0.081977054
35	0xbd19af68	-0.037520796
36	0x3e174e71	0.14776017
37	0xbe8cd9e0	-0.27509975
38	0x3d91078c	0.070815176
39	0x3d80050e	0.06250964
40	0x3dad3ce6	0.08458881
41	0x3dbcc53e	0.092173085
42	0x3ce50f84	0.0279615
43	0x3d872f96	0.06600873
44	0x3e1d43af	0.1535785
45	0x3cb26bf8	0.02178
46	0x3e0b4217	0.1359943
47	0x3d20d9bd	0.03927015
48	0x3e0d46b1	0.13796498
49	0x3d7430c7	0.05961683
50	0x3a85bb46	0.0010202907
51	0xbe753f51	-0.23949935
52	0x3da982b4	0.08276883
53	0x3db36165	0.08758811
54	0x3d7539bc	0.059869513
55	0xbc3740c4	-0.011184875
56	0xbebd4908	-0.3696978
57	0x3e055502	0.13020709
58	0x3d2dbe0f	0.042417582
59	0xbc44c6b5	-0.012010266
60	0x3ca9f5bd	0.02074706
61	0xbd983f16	-0.07433908
62	0x3d2ce8da	0.042214252
63	0x3c8af45b	0.01696222

head.1.weight f4 [32, 64]
0	0xbdd74c4d	-0.105126
1	0xbdeaa5eb	-0.114574276
2	0x3d2c9e59	0.0421432
3	0xbccce4fa	-0.025011528
4	0xbc110e15	-0.008853455
5	0x3da45baf	0.080253
6	0xbded7e0f	-0.115963094
7	0x3c82594d	0.015911723
8	0xbdb0b4cf	-0.086282365
9	0x3d7b7fc2	0.061401136
10	0xbbff8a01	-0.007798434
11	0xbe0b5923	-0.13608222
12	0x3dacf7f0	0.08445728
13	0x3cd51892	0.026012693
14	0xbda58249	-0.080814905
15	0x3c835185	0.016030082
16	0xbdace681	-0.08442403
17	0xbdd922c4	-0.10602334
18	0xbc0cd271	-0.008595095
19	0x3c213e96	0.009841582
20	0x3d47598e	0.04866939
21	0xbd14510e	-0.036210112
22	0x3d5ea94f	0.054360684
23	0xbd6b1673	-0.057394456
24	0x3a1c8382	0.0005970524
25	0x3d7263d8	0.05917725
26	0x3cd7efba	0.026359428
27	0xbd362393	-0.04446752
28	0x3d38161b	0.044942956
29	0x3d9df70d	0.07713137
30	0x3d7320b0	0.059357345
31	0xbd001744	-0.031272188
32	0xbd952fb7	-0.072844915
33	0xbe009f5e	-0.12560794
34	0x3dca4980	0.098773
35	0xbddfdadb	-0.10930415
36	0x3d40d9e1	0.047082786
37	0xbcf9a14d	-0.030472422
38	0xbdcdb5e0	-0.100444555
39	0xbd93cead	-0.07217155
40	0x3d1c140d	0.03810506
41	0xbdf0b487	-0.11753183
42	0xbdc5db30	-0.09660947
43	0xbdf66920	-0.1203177
44	0xbe259a9c	-0.1617226
45	0x3dc51a01	0.096241005
46	0xbe0463b5	-0.1292866
47	0x3d2903db	0.041263442
48	0xbdc00add	-0.09377072
49	0x3de00c66	0.10939865
50	0xbcc478f3	-0.023983454
51	0xbcc3310f	-0.023827104
52	0xbdafa3ed	-0.08576188
53	0xbce64338	-0.028108224
54	0xbd8b454e	-0.06800328
55	0x3d642493	0.055698942
56	0xbd1c0353	-0.038089108
57	0xbc2c12c0	-0.010502517
58	0xbdc7dcf1	-0.09758938
59	0xbcb489e0	-0.0220384
60	0xbd81599b	-0.06315919
61	0xbdb4cf45	-0.08828596
62	0xbdd11a3d	-0.10210083
63	0x3d10b2f5	0.035326917
64	0x3e6238f6	0.22092041
65	0xbe792bc4	-0.24333102
66	0x3e660ed0	0.22466588
67	0x3e970a3a	0.2949999
68	0x3e333b8b	0.17503183
69	0xbcfa2d39	-0.030539142
70	0xbe67f73f	-0.2265291
71	0x3d229ccd	0.039700318
72	0xbd87838f	-0.0661689
73	0xbd4de643	-0.050268423
74	0xbe39bb03	-0.18137746
75	0x3eb6adfc	0.35679615
76	0xbe0f4ff3	-0.13995342
77	0x3e0b683b	0.1361398
78	0x3e3fe234	0.18738633
79	0x3c4a2492	0.012337821
80	0x3d764f92	0.060134478
81	0xbea4ee51	-0.3221307
82	0xbde58d66	-0.1120861
83	0x3d264344	0.040591493
84	0xbd41dbf3	-0.0473289
85	0x3de1a3e0	0.11017585
86	0x3eb020b6	0.34399956
87	0xbe1432a2	-0.1447244
88	0x3f31c269	0.6943727
89	0xbe126bb7	-0.14298902
90	0x3d8fd675	0.07023326
91	0xbeb59800	-0.3546753
92	0x3e1f70ff	0.15570448
93	0xbe949328	-0.2901852
94	0x3dc8c276	0.098027155
95	0x3d60b197	0.054856863
96	0x3f0b8b66	0.5450958
97	0x3e1ba6be	0.15200326
98	0x3e644b1e	0.2229428
99	0x3e70ddec	0.23522156
100	0x3e3b7179	0.18305005
101	0xbe5b8cb6	-0.21440396
102	0x3d98a568	0.07453424
103	0x3c9fdb82	0.01951385
104	0x3e84d9ec	0.2594751
105	0xbd7d2b9b	-0.061809164
106	0xbe8bdb15	-0.27315584
107	0xbe6e346d	-0.23262186
108	0x3e577aab	0.21042888
109	0x3eb8a876	0.36066025
110	0x3e0d05c1	0.13771726
111	0x3e197036	0.14984211
112	0xbcf80c57	-0.030279322
113	0xbdf8fd03	-0.12157633
114	0xbdca5ec9	-0.0988136
115	0xbdb7221b	-0.08942052
116	0xb9fb3658	-0.0004791494
117	0x3e17f170	0.14838195
118	0xbe8ccaef	-0.27498576
119	0x3e4871e8	0.19574702
120	0x3ecbabea	0.39779598
121	0x3e5e2656	0.21694311
122	0x3e570121	0.20996524
123	0xbe069af1	-0.13145043
124	0xbe9baa3b	-0.30403313
125	0x3d8dff6f	0.06933486
126	0xbe30bbb3	-0.17259102
127	0x3d0315fa	0.03200338
128	0x3d29e58c	0.04147868
129	0x3e8c0bf8	0.2735288
130	0x3e0b69d6	0.13614592
131	0xbc164c71	-0.0091734985
132	0xbe8b01aa	-0.27149707
133	0xbde2b316	-0.11069314
134	0xbe8548c1	-0.2603207
135	0xbdf66634	-0.120312124
136	0x3db77d76	0.08959477
137	0x3e4a095b	0.19730131
138	0x3df6264e	0.12019025
139	0xbd45e4f9	-0.04831407
140	0x3d9e4b96	0.077292606
141	0x3e097d9a	0.1342682
142	0xbe284e70	-0.16436172
143	0x3e4189e7	0.18900262
144	0x3db39a08	0.087696135
145	0x3e2965e0	0.16542768
146	0x3d237020	0.039901853
147	0xbddc9a24	-0.107715875
148	0x3ccd1cab	0.025038084
149	0xbd4289b9	-0.047494624
150	0xbe564499	-0.20924605
151	0x3e14ea93	0.14542608
152	0xbf06debf	-0.52683634
153	0xbe41e6e9	-0.18935741
154	0xbe169f8e	-0.14709303
155	0x3cce7ac5	0.025205025
156	0x3e486023	0.19567923
157	0x3da7cca3	0.08193328
158	0xbe99f881	-0.30072406
159	0x3dc53f5f	0.09631228
160	0xbdec105c	-0.11526558
161	0x3df4b322	0.11948229
162	0xbdc4d7a8	-0.09611446
163	0x3cf35031	0.029701324
164	0xbd9c1fa6	-0.07623224
165	0x3e80908b	0.25110278
166	0x3e140962	0.14456704
167	0xbec08ef2	-0.3760906
168	0xbd85bcdb	-0.06530162
169	0x3de8e2c9	0.11371381
170	0x3c0765c1	0.008264006
171	0x3ec73793	0.38909587
172	0x3e16d61c	0.14730114
173	0xbc9004f0	-0.01758048
174	0xbe56bf2e	-0.20971367
175	0x3e44512c	0.1917159
176	0xbe06261a	-0.13100472
177	0x3d3d579d	0.046226133
178	0x3e30c183	0.17261319
179	0xbd33f781	-0.04393721
180	0xbed7abcd	-0.4212326
181	0xbdd4717b	-0.10373207
182	0x3e0a407b	0.1350116
183	0xbdc38bb4	-0.09548131
184	0xbe862cb2	-0.26205975
185	0x3df3cd45	0.119043864
186	0xbd1c5717	-0.038168993
187	0xbd8658b7	-0.0655989
188	0x3ed0c92b	0.4077848
189	0xbe1cc9b1	-0.15311314
190	0xbea52f00	-0.3226242
191	0x3d4822ba	0.048861243
192	0x3dc0b5a7	0.094096474
193	0xbe3f3c4e	-0.18675348
194	0xbeb85594	-0.3600279
195	0x3d9a41fe	0.07532118
196	0x3e35d783	0.17757992
197	0xbd9d96c5	-0.07694773
198	0xbdc57cad	-0.09642921
199	0xbd0d7e55	-0.034544308
200	0x3e1b004d	0.15136833
201	0x3cb02366	0.021501254
202	0x3d435b7f	0.04769468
203	0xbd0348be	-0.032051794
204	0x3e6d1384	0.23151976
205	0x3e80dcc7	0.2516844
206	0x3e2abccc	0.16673583
207	0x3cdc164a	0.026866097
208	0x3e3674ba	0.17817965
209	0xbd968844	-0.07350209
210	0x3e1e58d9	0.1546358
211	0xbe4d68f1	-0.20059563
212	0x3e4a4c62	0.197557
213	0xbe072c32	-0.13200453
214	0x3e2abdea	0.16674009
215	0x3dbf42ca	0.09338911
216	0x3f71ba38	0.9442477
217	0x3dedcf4e	0.11611806
218	0x3e8bf045	0.2733175
219	0x3d8160f1	0.06317318
220	0xbe6452e4	-0.22297245
221	0x3dbe8680	0.093029976
222	0x3e47f566	0.19527206
223	0x3e1814ad	0.14851637
224	0x3e3c68ea	0.18399397
225	0x3e06a4bd	0.1314878
226	0x3c761be9	0.015021303
227	0x3ce5fb19	0.028073834
228	0x3c850d40	0.01624167
229	0xbeda4f15	-0.4263846
230	0x3d472c54	0.04862626
231	0x3d74b1b2	0.059739776
232	0x3e983223	0.2972575
233	0xbe84011d	-0.257821
234	0x3d9fd917	0.078050785
235	0xbe44151f	-0.19148682
236	0x3cddcb77	0.027074559
237	0x3d3915b8	0.04518673
238	0x3e2d6ab2	0.16935232
239	0xbd85a2f6	-0.06525223
240	0x3d44e865	0.04807319
241	0x3dab1360	0.08353305
242	0x3ddb401c	0.10705587
243	0xbd7aebc9	-0.06126002
244	0x3df504e8	0.119638264
245	0xbdb527c5	-0.08845476
246	0x3da1c1e3	0.07898309
247	0x3d8517dd	0.06498692
248	0x3ef56dbe	0.4793529
249	0xbda87895	-0.08226124
250	0x3e27405c	0.16333145
251	0x3dd6877b	0.104750596
252	0xbe7f7e95	-0.24950631
253	0x3b09626a	0.00209632
254	0xbe4cddf3	-0.20006542
255	0x3dbb6518	0.091501415

head.1.bias f4 [32]
0	0xbd8527f0	-0.06501758
1	0xbe11070d	-0.14162846
2	0x3d0e5531	0.034749214
3	0xbd987f35	-0.07446138
4	0xbc89c360	-0.016816795
5	0x3dd52a53	0.10408463
6	0x3c7f82a4	0.015595112
7	0xbde5ec63	-0.11226728
8	0xbd86964f	-0.06571638
9	0xbdfaaab5	-0.12239591
10	0xbe1ba117	-0.1519817
11	0x3d2e67f0	0.04257959
12	0x3dfd67c0	0.12373304
13	0x3dbad35e	0.09122346
14	0x3d411ba7	0.047145512
15	0xbd560085	-0.05224659
16	0xbd8ece7a	-0.06972976
17	0xbdec6014	-0.11541763
18	0x3dc4044f	0.09571134
19	0xbc8277e2	-0.015926305
20	0x3dcc6157	0.099795036
21	0x3c9c3184	0.01906658
22	0xbdea43f2	-0.11438741
23	0xbd427887	-0.047478225
24	0x3cb42b5b	0.02199333
25	0xbbbb0c35	-0.0057082423
26	0xbc8cd970	-0.017193526
27	0x3d5a57d5	0.05330642
28	0x3dccdcf0	0.10003078
29	0x3e214adf	0.15751217
30	0x3d80a260	0.062809706
31	0x3d5ed8fb	0.054406147

head.3.weight f4 [1, 32]
0	0xbe1256d3	-0.14290933
1	0xbef6b86e	-0.48187584
2	0x3e97feae	0.29686493
3	0xbe73a96b	-0.23795097
4	0xbcf8e3a9	-0.030381994
5	0xbe77ef16	-0.24212298
6	0xbe2a2902	-0.16617206
7	0xbe9c780c	-0.30560338
8	0xbdd4d12f	-0.10391461
9	0xbdf90ed3	-0.121610306
10	0x3ecd29f4	0.4007107
11	0xbf28d76f	-0.65953726
12	0xbf09a07d	-0.5376051
13	0x3e9f79d3	0.31147632
14	0xbf151f31	-0.5825072
15	0xbdf9bc38	-0.12194103
16	0xbe30bd93	-0.17259817
17	0x3b7df286	0.0038749292
18	0x3ea7018f	0.32618377
19	0xbede7b65	-0.43453518
20	0x3e446632	0.1917961
21	0x3b420580	0.002960533
22	0xbcf5162d	-0.0299178
23	0xbe057c4d	-0.13035698
24	0x3e818252	0.2529474
25	0xbee8d94d	-0.45478287
26	0xbc4369b1	-0.011927054
27	0xbee45918	-0.44599223
28	0x3edb8de6	0.42881697
29	0xbeff1488	-0.49820352
30	0xbec20780	-0.37896347
31	0xbf107688	-0.56430864
