src/backend/loss/model.pt (torch, 901526 bytes, 77 tensors)

net.0.weight f4 [32, 9, 5]
000000 ac 1c 1f 3d e8 33 9e bd 71 12 ef 3c 8c d7 15 3c
       0.038845703 -0.07724744 0.029183598 0.009145629
000010 50 cc 0f be 5a ab f4 bd 2d 87 02 be a9 8c 78 3d
       -0.14042783 -0.11946745 -0.12746878 0.06068102
000020 8a 62 90 3c 71 26 40 3e be c4 2b 3e 43 7d 3c 3d
       0.017625112 0.18764664 0.1677427 0.046017896
000030 c5 b8 87 bd b0 a1 af bd bb 1b c9 bc 82 d4 b0 bd
       -0.06627039 -0.08575761 -0.024549356 -0.08634283
000040 f2 29 4c 3d ec aa 1a be 63 12 18 3e 91 32 9f bd
       0.04984469 -0.15104264 0.14850764 -0.07773317
000050 e6 17 f6 3d 12 60 cd 3a 6d c0 fd 3d 0f ae b7 3d
       0.12016277 0.001566889 0.12390218 0.08968746
000060 18 bd 47 3d 1f b8 fd 3d 90 06 23 3e e6 b6 26 3d
       0.04876432 0.12388634 0.15920472 0.04070177
000070 d0 21 de 3c cb 4f 43 be c5 20 78 3d 56 16 91 b9
       0.027115732 -0.19073407 0.060578126 -0.00027673197
000080 cc 14 bd bc e9 25 41 bd 57 4a 37 3b 03 ce 4d 3d
       -0.023081206 -0.047155295 0.0027967894 0.050245296
000090 50 b0 fb bd bd 53 2b be ed 44 df bd c2 ca 18 be
       -0.12289488 -0.16731162 -0.109018184 -0.14921096
0000a0 70 43 c9 3d 5c 0c 11 bd 9b f8 73 bd f9 b6 07 3e
       0.09827316 -0.035412177 -0.05956326 0.13253392
0000b0 d4 e7 00 3e da 58 e6 bc ec 81 41 bd 50 83 d5 bb
       0.12588435 -0.02811854 -0.047243044 -0.006515898
0000c0 02 48 b4 3d 49 e7 0b be 41 55 33 be 00 39 b6 3d
       0.08802797 -0.13662447 -0.1751299 0.08897591
0000d0 f9 32 07 3e 03 a2 91 bc 9d 4c 1e be 18 da ad bd
       0.13203038 -0.017777449 -0.15458913 -0.08488864
0000e0 1d fe c5 bd 3e 72 a9 3c 19 61 00 3e 72 4e fe 3d
       -0.09667609 0.020684358 0.1253704 0.12417306
0000f0 65 3e 4a 3d 7e 8b b4 3d d2 99 0a 3d 96 fe 6d be
       0.04937591 0.088156685 0.0338381 -0.23241648
000100 b2 e2 5b be 03 cd fa 3c 67 7b 97 bd 49 21 71 bd
       -0.21473196 0.030615335 -0.07396584 -0.058869634
000110 0a c7 9e 3d 3f 50 09 3e 22 ef 69 3d 73 3f 96 bc
       0.077528074 0.13409518 0.05711282 -0.018340802
000120 6e f3 0e 3e 60 4d 10 3c 4a 92 3b 3d 93 78 e1 3d
       0.13960049 0.00880751 0.04579381 0.11009326
000130 21 40 52 3c 77 1a 1f 3c f8 89 79 3d a9 2f 9a bc
       0.012832672 0.0097109 0.060922593 -0.018821554
000140 6d be ad 3d 1e be 28 be 43 21 ab bd 87 45 84 bd
       0.084835865 -0.16478774 -0.083559535 -0.06458574
000150 73 9f ca bd 76 ee 22 bd c3 20 39 3d 65 79 bf 3c
       -0.09893694 -0.039778195 0.04519726 0.023373315
000160 28 8f c9 bc 6d 8e 09 3e fe e0 0e be fd 59 d3 bd
       -0.024604395 0.13433237 -0.13953015 -0.10319898
000170 02 9c 64 3d aa a1 ac bb 25 c8 f5 bd 8b 27 02 be
       0.055812843 -0.0052682953 -0.12001065 -0.12710397
000180 ed 21 d4 bd d6 dc d3 3d e5 a3 54 3d 44 2c d6 3d
       -0.10358033 0.103448555 0.051914115 0.10457662
000190 31 e9 9f bd 5a db c8 bd 13 2c 24 bd d2 50 c4 3d
       -0.078081496 -0.09807463 -0.040081095 0.09585728
0001a0 3a c8 9d 3d 62 54 14 be e7 77 8a 3d ce 98 a4 bd
       0.07704206 -0.14485314 0.06761151 -0.08036958
0001b0 2e 71 05 be 52 1e e7 bc 38 ae de 3b ea 17 fe 3d
       -0.13031456 -0.0282127 0.006795671 0.12406905
0001c0 59 9f 64 3d 0b e8 e1 3c 5a fc e7 3c ce 5c 2b be
       0.05581603 0.027576467 0.028318573 -0.16734621
0001d0 96 ad ff bd 2b 90 eb bd 6f 37 0f be 00 17 24 bd
       -0.12484281 -0.11502107 -0.1398599 -0.040060997
0001e0 32 ee 42 3d b5 9e 4a bd 01 f1 d1 3d b0 ae af bd
       0.047590442 -0.04946776 0.10251046 -0.08578241
0001f0 70 85 8e 3c 08 24 28 be 3b ae 7d be a1 75 5e be
       0.017397612 -0.16419995 -0.24773495 -0.2172456
000200 d4 81 83 bd 1b b9 98 bd b0 be 4b bd e1 4f 92 38
       -0.06421247 -0.07457181 -0.0497424 6.976701e-05
000210 f8 10 cd bd 65 44 f7 3d 5e fe 61 3e 7f 92 b5 3d
       -0.10013002 0.12073592 0.2206969 0.088658325
000220 b3 de 31 bd e4 15 5c 3d 16 47 66 3d 89 d4 38 bd
       -0.043425273 0.053731814 0.056220137 -0.045124564
000230 09 3a 84 3a 10 af 00 3e 7a 46 7f 3d 24 33 c8 bd
       0.0010088097 0.12566781 0.06232307 -0.09775379
000240 61 ab 8d be 4a 43 0b be 0a ff 19 3c 42 2c 2d 3d
       -0.27669814 -0.13599887 0.009399185 0.042278536
000250 c5 d0 4a 3e e1 b7 ec 3d fb d6 c6 bd 84 c3 ff bd
       0.19806202 0.115585096 -0.09708973 -0.124884635
000260 ac 5e ac bd d3 ec d3 3d e4 ee 27 3e 57 c9 17 bd
       -0.08416495 0.10347905 0.16399723 -0.037057247
000270 37 21 fd bd d6 db ff 3d 5a 18 74 3e 30 56 65 3d
       -0.12359851 0.12493102 0.23837414 0.055990398
000280 10 66 d6 3c 67 00 5a 3d 77 72 81 bd 41 01 f7 bd
       0.026171714 0.05322304 -0.063206606 -0.12060786
000290 86 a1 a4 3d 9d f9 f9 bd ac c8 11 bd fd bf 95 bd
       0.08038621 -0.12205813 -0.035591766 -0.073120095
0002a0 d9 0e f7 3d 4d 21 14 3d d2 da 80 3d 72 53 e2 bd
       0.12063379 0.03616457 0.06291737 -0.11051072
0002b0 73 fb e0 3d 52 28 9a bb e9 26 ce bd 8e 67 89 bd
       0.1098546 -0.0047045136 -0.10066015 -0.067092046
0002c0 20 f9 23 be 6f 24 c0 bc d0 e6 d3 3d e2 ff 06 3c
       -0.16013002 -0.023454873 0.10346758 0.008239718
0002d0 97 5a 18 3e 5f 7a b6 3d f1 c4 29 3c c7 e2 59 3d
       0.14878307 0.08910059 0.010361896 0.053194787
0002e0 4b 96 38 bd 70 d4 aa bd e2 84 ce bd 25 54 db 3d
       -0.045065206 -0.083413005 -0.10083939 0.10709409
0002f0 13 63 db 3d 3c 32 8c 3d a4 e3 7c 3e c5 ac 65 3e
       0.10712256 0.06845519 0.24696213 0.22429188
000300 f7 f2 0b 3e 2a 33 66 be 52 82 d1 bd f1 e0 0f bd
       0.13666902 -0.22480455 -0.10229935 -0.03512663
000310 64 59 52 3d aa db 4f bd cb 00 f2 bc 97 0d 3d be
       0.05135478 -0.050746597 -0.029541394 -0.18462215
000320 86 0c 00 3e ac e0 58 3e 2c 50 dd 3c cb b4 a2 bd
       0.12504777 0.21179456 0.027015768 -0.0794464
000330 20 59 d7 bd ec 0f ab bd 67 9f 05 bd ef ba a8 bc
       -0.10515046 -0.08352646 -0.03262272 -0.02059695
000340 f7 40 4f bd d5 14 56 3d bb d8 00 bd 69 2d e4 3c
       -0.050599065 0.05226596 -0.03145669 0.027853684
000350 d1 2f dc bd 7d 6a d4 3d cc b7 14 39 b5 e5 c9 bd
       -0.10751308 0.103718735 0.0001418285 -0.09858266
000360 2d 4e c0 3c 52 22 90 bc 71 a8 40 bd d3 38 f3 bd
       0.023474777 -0.01759449 -0.04703564 -0.11876073
000370 51 84 aa 3d 67 5a 8c 3d 04 85 aa bd 1a 3a 57 bd
       0.083260186 0.068531804 -0.08326152 -0.052545644
000380 4e ea 82 bd 98 27 44 be e6 4b 05 bd d0 c8 c8 bd
       -0.06392346 -0.19155729 -0.032543086 -0.09803927
000390 38 18 2d be 57 9d e4 bd 43 86 61 bd 2b b5 e7 3d
       -0.1690377 -0.11162823 -0.055059683 0.11313852
0003a0 7e 67 30 3e 36 fb 45 3e 1e b6 3e 3e 7f a5 97 3d
       0.17226979 0.1933411 0.1862416 0.07404613
0003b0 e8 8f 94 3d 3c 29 17 bd c1 27 e9 3d 70 84 53 bd
       0.072540104 -0.03690456 0.113845356 -0.051639974
0003c0 ba 76 12 bd 90 46 2d bd 54 6b d2 bd f5 8b d3 bd
       -0.035757758 -0.04230362 -0.102743775 -0.10329429
0003d0 cb 90 ab bc e4 a9 19 3e 10 59 b2 bd 50 83 18 be
       -0.020943066 0.15006214 -0.087083936 -0.14893842
0003e0 c9 35 9f bb 38 f1 30 3e 33 f7 83 3d 14 92 0d bb
       -0.0048587066 0.17279518 0.06443634 -0.0021601962
0003f0 c3 dc 06 bd 6b f6 0a 3e b4 ed 0e be a4 c3 3c 3d
       -0.03292538 0.13570563 -0.13957864 0.046085015

net.0.bias f4 [32]
000000 5f dc aa bc e9 4f e4 3c 34 87 18 3d d6 df 6a bd
       -0.020857034 0.027870135 0.037238315 -0.057342373
000010 d2 98 7a 3d 9e c3 13 3e ea 87 3b bd b7 f9 8c bd
       0.061180897 0.14430091 -0.045783915 -0.06883567
000020 a9 e3 d4 bc 45 bb 0c 3e f7 fd 56 3d 20 b1 f1 bd
       -0.025987463 0.13743313 0.052488293 -0.11801362
000030 cc 5b cf 3d 57 91 f5 3d 82 b0 f3 3d 75 6e 4e 3d
       0.10124931 0.11990612 0.118989006 0.05039831
000040 4e 20 22 be e3 2d 5d 3d 2a 5b 96 3b 73 93 04 be
       -0.15832636 0.05399884 0.0045885043 -0.12946872
000050 7c 30 10 be c9 60 83 bc fc ed af 3d d2 16 5d 3d
       -0.14080995 -0.016037362 0.08590314 0.05397684
000060 03 61 be bc dc bc 22 3d ec 63 9d bd ca bb be 3d
       -0.023239618 0.03973089 -0.07685074 0.09313162
000070 9a 64 e6 3c 11 88 8d bd 9a 14 c2 bd d8 3a f9 bd
       0.028124142 -0.06910718 -0.09476586 -0.12169427

net.1.weight f4 [32]
000000 d2 5e 81 3f 5a 94 79 3f 20 8e 8e 3f f6 fb 78 3f
       1.0107062 0.9749199 1.1137123 0.9725946
000010 3f f3 82 3f bc c5 6c 3f e1 86 8b 3f 49 bf 84 3f
       1.0230483 0.9248922 1.0900537 1.0370876
000020 51 93 9a 3f 8d 38 87 3f 6a 03 77 3f af fd 7c 3f
       1.2076207 1.0564133 0.96489584 0.9882459
000030 ef 66 7e 3f 41 3c 8d 3f d3 a7 81 3f f2 a6 7d 3f
       0.99375814 1.1034013 1.0129341 0.99082863
000040 e3 b1 8d 3f bc 46 85 3f 4c f1 72 3f 44 c0 89 3f
       1.1069912 1.0412211 0.9489944 1.07618
000050 b9 75 8d 3f 6a a7 72 3f cd c6 92 3f 01 70 77 3f
       1.1051551 0.94786704 1.1466919 0.9665528
000060 b1 03 8b 3f 46 20 83 3f 45 15 85 3f 7c 2c 7f 3f
       1.0860502 1.0244224 1.0397116 0.9967725
000070 d7 dd 89 3f 68 1f 86 3f 43 42 8d 3f 8a 1a 72 3f
       1.0770825 1.0478334 1.1035846 0.94571745

net.1.bias f4 [32]
000000 be 3e 0e be ce 70 81 3d f2 af 55 3c ce b6 8b 3d
       -0.13891122 0.06320344 0.013042437 0.068219766
000010 5f 45 47 3e 83 f9 58 3c 99 34 31 bc 92 c2 ef 3c
       0.19460057 0.013243082 -0.010815763 0.029267583
000020 46 a3 0b 3d 85 ba bd 3d 4d 42 67 3d 56 6f b7 bd
       0.034091257 0.092640914 0.056459714 -0.089567825
000030 ac 79 6c 3e 3a e0 57 3c b0 ce 3f bc cd 4e 5c bd
       0.23093289 0.013176018 -0.011706993 -0.053786088
000040 2e d2 63 3d 56 6d 61 bd 38 a8 84 3d 29 c3 01 bb
       0.055620365 -0.05503591 0.06477398 -0.0019800162
000050 4e c8 c4 bb 0c 4e 0f bd ee 52 26 3e 24 73 5c 3d
       -0.0060053235 -0.03498654 0.16242573 0.053820744
000060 19 f6 d6 3d b6 4a 53 bd 44 ef 5a 3d aa 39 da 3d
       0.10496158 -0.05158492 0.053450838 0.1065553
000070 4b 8c fe 3d 5f fb 58 3d e6 a8 94 3d 98 c9 e6 3d
       0.124291025 0.0529741 0.07258777 0.1126892

net.1.running_mean f4 [32]
000000 9b 9f bd bc 6d e9 e9 3c 03 87 0f 3d 40 f7 74 bd
       -0.023147395 0.028553689 0.035040867 -0.05980611
000010 e3 39 6a 3d 03 73 12 3e 18 86 44 bd f2 b1 92 bd
       0.05718411 0.14301686 -0.047979444 -0.071628466
000020 92 db f2 bc 9d 96 0a 3e 9e 3b 57 3d 38 e6 eb bd
       -0.029645715 0.13534017 0.05254709 -0.1151852
000030 79 c1 cd 3d a1 fc e9 3d 81 ce eb 3d 4d 29 33 3d
       0.100466676 0.11425138 0.11513997 0.04374056
000040 65 2f 2a be 5c 1e 51 3d ee c6 a1 3b cf 4c 09 be
       -0.16619642 0.051054344 0.0049370443 -0.13408206
000050 a1 e2 12 be cc 16 85 bc d1 e4 a8 3d 97 8f 45 3d
       -0.14344265 -0.016246222 0.08246768 0.04823264
000060 a9 d8 ba bc a2 ac 23 3d 5e 66 a9 bd 3f 91 c5 3d
       -0.02280839 0.039959557 -0.08271478 0.09646844
000070 1f 54 cd 3c 5e 80 a2 bd ee 54 d5 bd 94 e3 fe bd
       0.025064526 -0.0793464 -0.1041659 -0.12445751

net.1.running_var f4 [32]
000000 95 d7 12 3f 2f 85 a4 3e fc fc ae 3f 2a d7 c7 3e
       0.573602 0.3213286 1.3670955 0.39031345
000010 09 27 f3 3e 8f 0e 50 3f 58 5b 03 3f 6c 8c 11 3f
       0.4749072 0.81272215 0.51311255 0.5685489
000020 9a db dd 3e e9 3a 12 3f 51 1e cc 3e 02 cc 86 3e
       0.43331605 0.5712114 0.3986688 0.2632752
000030 d4 db e1 3e 42 b6 48 3f d8 46 30 3f 6c a9 9e 3f
       0.44113028 0.78403103 0.688581 1.2395453
000040 fa 50 ee 3e d9 0d 51 3f 47 8d dd 3e db 71 24 3f
       0.46546155 0.81661755 0.4327185 0.6423623
000050 bc 13 52 3f e1 b9 2b 3f 66 8d e0 3e 36 0a 36 3f
       0.8206136 0.67080504 0.43857878 0.7110933
000060 60 9f 83 3e 73 80 40 3f 06 22 32 3f 72 82 39 3f
       0.2570753 0.75196 0.69583166 0.7246467
000070 75 68 06 3f e6 a1 74 3f 2b 9c 9d 3f 4c f1 25 3f
       0.5250314 0.9555954 1.2313284 0.64821315

net.3.conv1.weight f4 [32, 32, 3]
000000 8a d6 1f 3d 72 72 58 3d 09 7b 36 3d 6e 8e 9c 3c
       0.03902296 0.05284352 0.04455093 0.019110885
000010 da dd 2f 3d a6 bb af bd 1e d5 c9 3c 83 38 b9 bd
       0.042936184 -0.08580713 0.024637755 -0.09043982
000020 1d 25 b6 bd 36 0c 4d bd b2 98 a2 3d 6c e7 86 ba
       -0.088937975 -0.050060473 0.079392806 -0.0010292358
000030 09 f8 be 3d 58 df 76 3d e1 15 0f bd 44 ad a3 3d
       0.09324653 0.06027159 -0.034932975 0.07992032
000040 6a 08 87 3d 0d 37 46 3c de 01 ac bd c8 30 06 bc
       0.06593402 0.012098086 -0.08398794 -0.008190341
000050 d5 78 42 bd f6 c1 6d 3c 26 ab 94 bd 38 ef 23 bc
       -0.047478516 0.014511576 -0.072592065 -0.010005765
000060 7e 0c 54 3c a5 75 c0 3d 7e 09 1e 3e 24 f8 0f be
       0.0129424315 0.09397439 0.15433308 -0.14059502
000070 15 d7 14 be 90 bd cf bd e2 f7 a0 bd e8 99 d2 bc
       -0.14535172 -0.10143578 -0.0785978 -0.025708154
000080 44 bf fc bd 4c 3d 9b bd 36 68 96 bd dc 64 a7 bd
       -0.123411685 -0.07580051 -0.073440954 -0.08173534
000090 ea 7c 57 bd 87 7d bf bb e4 37 a2 bc 5a 9b bf 3c
       -0.05260936 -0.0058438214 -0.019802041 0.023389507
0000a0 34 d5 3f 3d b6 b8 a7 3c 23 f1 0a 3d c2 b6 45 3d
       0.046834186 0.02047382 0.033921372 0.048269995
0000b0 af 34 4f 3b ae e6 0a bd c7 20 66 3d 40 4a 02 3e
       0.0031617095 -0.0339114 0.056183603 0.12723637
0000c0 36 c1 fb 3d 1f f8 e6 bd 9d 37 61 be bd a7 24 3d
       0.122927114 -0.11277794 -0.21993871 0.04019903
0000d0 14 8d a5 3d 7f ff 5f 3d 52 c4 09 3e 35 7d 21 3d
       0.08083549 0.05468702 0.13453797 0.039426047
0000e0 b2 65 13 bd 78 b3 00 bc af 40 7f 3d cb ec 32 bd
       -0.035985656 -0.007855289 0.062317546 -0.043682855
0000f0 44 81 3f 3c ee b8 b1 3d 22 40 bf 3b 89 ff 0e be
       0.011688534 0.08677851 0.0058365026 -0.13964666
000100 11 8f fe bd 9e 3d c8 3c 53 26 45 bc 19 a9 01 bd
       -0.124296315 0.024443444 -0.012033063 -0.031655405
000110 ec c2 f5 3d 58 21 e7 3c 5c a5 05 3d ca c0 c0 bc
       0.12000069 0.028214142 0.032628402 -0.023529429
000120 29 d8 31 3d d1 82 e0 3d d6 f1 34 bd 9a 4e 55 bc
       0.043419037 0.10962451 -0.044175945 -0.013019228
000130 3f f5 97 ba 3f a2 6d 3d b8 19 03 3e 5d e4 91 3d
       -0.0011593475 0.058016058 0.1280278 0.07123635
000140 14 c3 5e bd 53 dd 26 3d aa 66 6e 3c d7 c9 af bd
       -0.05438526 0.040738415 0.014550844 -0.0858342
000150 e6 9f 48 be 7f eb 03 be 62 0a a5 bd 56 44 86 bd
       -0.19592246 -0.12882803 -0.08058621 -0.06556003
000160 b2 f2 44 be 5e bb f3 bd e3 d8 1e 3e 8b d5 9a 3d
       -0.19233206 -0.11900972 0.15512423 0.07560261
000170 b8 5c 31 bc 56 4a 79 3d d8 77 54 bc 61 1d 06 bd
       -0.0108253285 0.060861908 -0.012968026 -0.03274286
000180 f5 89 af bd 1e 9d 03 be fd 61 27 be 1c eb e2 3b
       -0.08571235 -0.12852904 -0.16345973 0.006925
000190 a9 67 2b 3d be 82 8a 3d 0e a0 8c 3b c9 d3 08 bd
       0.041846905 0.06763218 0.004291541 -0.0334051
0001a0 fe af 44 be ce f1 31 3d e9 4b 81 3b 0c 76 fc 3d
       -0.1920776 0.043443494 0.003945817 0.12327203
0001b0 18 3f 28 be ab 93 94 bb cd a7 a8 bd aa 6f 3b 3d
       -0.16430318 -0.004534205 -0.082351305 0.045760788
0001c0 8b 7e ab 3d 1e 1b a1 bd ea cb b8 3d a5 b2 12 3d
       0.083737455 -0.078665 0.090232685 0.0358149
0001d0 24 c5 cf bd 84 8b 62 3d 0f f9 ed 3d 25 63 aa 3d
       -0.101450235 0.055308834 0.1161977 0.083196916
0001e0 ac f5 a2 3d 56 cf a6 3d 97 4d 1d 3d c9 db a0 3c
       0.079570144 0.08145015 0.038404074 0.019636052
0001f0 ea ac 1b 3d 77 ac 12 3e c3 3f 2e 3c 2d e6 00 3d
       0.0380067 0.14323603 0.010635319 0.031469513
000200 b0 d5 73 3d 3f ba d1 ba ea 01 80 bc 79 1f e9 bd
       0.05952996 -0.001600094 -0.015625913 -0.11382956
000210 96 b7 5d 3c a0 29 57 bb c5 e0 f2 3d 85 b2 43 bb
       0.01353254 -0.0032831207 0.11859278 -0.0029861045
000220 3c dc 41 bd 42 47 11 3e c6 1f 9c bd ec d4 95 3b
       -0.047329172 0.14187339 -0.07623248 0.0045725014
000230 02 a9 39 bd f3 af 28 be 02 42 a9 bc 3f f4 c7 bc
       -0.045327194 -0.1647337 -0.020661358 -0.024408458
000240 24 0c 6d 3d 2f 50 d5 3d 49 04 26 3e d4 c1 61 3d
       0.057872906 0.104156844 0.16212572 0.05511649
000250 16 32 5e 3d 7a 86 7e bc a0 b8 5d bd 46 68 10 be
       0.054246984 -0.015534991 -0.05413115 -0.14102277
000260 8a 4d e6 bd a1 56 09 3e 46 b4 a9 3c bc 38 67 bd
       -0.11245258 0.13411953 0.020715844 -0.05645059
000270 a6 5b 8c 3d 13 b3 b3 bc 75 a0 9e 3b 07 46 b2 bd
       0.06853418 -0.021935975 0.0048409053 -0.08704763
000280 b8 8a da bd f1 b2 9c bd 62 7c 1e be 06 e6 01 be
       -0.1067099 -0.07651318 -0.15477136 -0.12685403
000290 9e 93 85 bd 0e 0d d8 bd 8a e9 10 bd 2d 74 96 bb
       -0.06522296 -0.10549365 -0.03537897 -0.004591486
0002a0 9d ed a3 bc 4f fa 27 bd 7a 70 87 bd ba de 20 3d
       -0.020010764 -0.041010197 -0.0661325 0.03927491
0002b0 0a 62 13 bc 9e d2 81 bd 72 5c 00 be 65 16 0b be
       -0.008995542 -0.06339 -0.12535265 -0.13582762
0002c0 3f 6e 21 bd fc 94 67 bd bc 9d ff bc 1a 1d 30 bd
       -0.03941178 -0.056538567 -0.031203143 -0.042996503
0002d0 c4 bd 2f bd 69 38 1a bd 2f e6 46 3b 71 7b 2c 3e
       -0.042905584 -0.037651453 0.0030349602 0.16843964
0002e0 ad 00 e6 3d ad 0f 29 bd 55 d1 ff bc 64 58 e2 bd
       0.11230598 -0.041274715 -0.031227747 -0.110520154
0002f0 79 69 46 bd 14 83 d2 bc b6 49 a0 3d 60 d9 9e bd
       -0.04844043 -0.025697269 0.07826559 -0.07756305
000300 c7 81 7e 3d 2d e3 09 3d 27 3e c6 bd 95 31 64 bd
       0.062135484 0.033663917 -0.09679823 -0.055711348
000310 2e 0f 6e 3c e0 b2 dc 3d 32 1f 5c 3d 7b 74 06 3e
       0.014529986 0.10776305 0.053740688 0.13130371
000320 36 48 a6 3c ec e8 1c bd c6 72 b9 3d b2 8e 52 3d
       0.020298105 -0.03830807 0.090550944 0.051405616
000330 49 8b 55 3d 2f c6 39 3c f4 a3 97 bd 8a 3f f3 3d
       0.052134786 0.011338755 -0.074043185 0.118773535
000340 5e 8c 61 bb e1 16 a3 bd 44 57 09 3e 14 1a 34 3c
       -0.003441594 -0.07963348 0.13412195 0.010992546
000350 56 a2 ab bc 50 19 4e be 16 92 9e 3b 03 d9 92 3d
       -0.020951431 -0.20126843 0.004839192 0.07170298
000360 1d c2 91 bd 1a 6c a8 3d 57 6d 69 3d a6 90 0e bd
       -0.07117102 0.08223744 0.05698904 -0.034805916
000370 51 0f d5 3d 9a 47 e6 3c 4e 09 e6 bd 7b e0 19 be
       0.10403312 0.028110314 -0.112322435 -0.15027039
000380 6e 2e 19 bd 55 c4 ab bc b1 5d 03 be b2 89 06 be
       -0.037397794 -0.020967642 -0.12828709 -0.13138464
000390 fb 05 62 3b d0 0a c1 bd d4 62 a3 bd 4e 6d 94 bd
       0.0034488428 -0.094258904 -0.07977834 -0.07247411
0003a0 e5 ef 1e bd 5b 97 3b bd ee 58 f5 bd a8 1c b5 bd
       -0.038803 -0.04579864 -0.119798526 -0.08843356
0003b0 cb 28 b0 bd d4 9c 69 bd 33 ce 58 bd 96 05 81 3d
       -0.08601531 -0.05703433 -0.052931022 0.062998936
0003c0 fb d4 06 3e 94 14 da 3d 9c 17 2f 3e f5 c1 c7 bc
       0.13167183 0.10648456 0.1709885 -0.024384478
0003d0 2e 94 d5 bd 8b 9d 93 3c 9f dd fb bd cb ee e3 bd
       -0.10428654 0.018019458 -0.1229813 -0.111295305
0003e0 96 f3 34 3d e4 98 f9 3c d5 99 19 3b f6 c3 b1 bd
       0.044177614 0.030468412 0.0023437638 -0.08679955
0003f0 34 02 5a 3d 9f a7 68 3d 7f e0 11 3d 74 07 96 bc
       0.053224757 0.05680048 0.035614487 -0.0183141

net.3.conv1.bias f4 [32]
000000 04 6e 20 3d df d0 c7 3d ec 80 7f bd d3 f0 ca 3b
       0.03916742 0.09756636 -0.06237881 0.0061932593
000010 8b 8e 37 3d 4c 04 ff 3c 74 5b ca 3c 43 0b c1 3c
       0.044813674 0.031129979 0.024701811 0.02356494
000020 4d 4a cd 3d 61 b4 e2 bd 1c f0 de bd 38 a7 bd bd
       0.100239374 -0.11069561 -0.10885641 -0.0926041
000030 51 a7 2c bd 33 01 87 bd 47 35 b4 3d 93 5a ea 3c
       -0.042151753 -0.065920256 0.08799224 0.028607642
000040 f7 89 bf bd 91 29 63 3d 88 8e c9 3d fb af 8b bd
       -0.093524866 0.055459563 0.09841639 -0.06820675
000050 50 3d 83 3d 1c ae f8 bc 24 db c3 3d 83 af 87 bd
       0.06408179 -0.03035646 0.09563282 -0.06625273
000060 77 5b 12 bc 53 92 94 3c 52 74 0f bd b8 65 df 3c
       -0.00893294 0.01813618 -0.03502304 0.027270183
000070 65 fa 9b 3d 33 18 cd 3d 72 cb cf bc 31 7c 1e bd
       0.07616118 0.10014381 -0.025365565 -0.038692657

net.3.bn1.weight f4 [32]
000000 49 78 86 3f da 5c 8c 3f 8e 2c 82 3f 2c 2a 8b 3f
       1.0505458 1.0965836 1.0169847 1.0872245
000010 64 35 7b 3f 46 21 82 3f 9d 40 80 3f 88 6b 88 3f
       0.9812834 1.0166404 1.0019718 1.0657816
000020 ea 28 89 3f 88 58 8b 3f 02 ca 8c 3f 2c af 73 3f
       1.0715611 1.0886393 1.0999148 0.95189166
000030 32 dc 87 3f 86 75 6c 3f 73 6b 84 3f 17 e0 8f 3f
       1.0614073 0.92366827 1.0345291 1.1240262
000040 d3 cd 7e 3f 8d b9 89 3f a4 fd 86 3f 1f 8a 64 3f
       0.9953281 1.0759751 1.0546155 0.89273256
000050 de 6a 86 3f a3 33 8e 3f 40 db 88 3f 5b 98 89 3f
       1.0501363 1.1109508 1.069191 1.074962
000060 2f 4d 7b 3f 3d 35 8e 3f 90 fb 86 3f 07 21 83 3f
       0.9816465 1.1109997 1.0545521 1.0244454
000070 d4 2c 84 3f f2 6e 8d 3f 24 10 82 3f 8f 7a 83 3f
       1.032618 1.1049483 1.0161176 1.0271777

net.3.bn1.bias f4 [32]
000000 f1 79 eb bd f8 87 01 be bb 85 aa bd 5d 34 d4 bd
       -0.11497868 -0.12649524 -0.08326288 -0.1036155
000010 88 98 a3 bd 9b fe 19 be 93 67 05 be f8 33 17 be
       -0.079880774 -0.1503853 -0.13027792 -0.14765918
000020 6c 03 4f be 3d df d6 bc 93 3f 21 be 68 7f 8b bd
       -0.20216149 -0.026229495 -0.15746908 -0.0681141
000030 a6 70 ff bd 29 54 8e bd 4c 93 04 be 8c f6 d2 bd
       -0.12472658 -0.06949646 -0.12946814 -0.10300931
000040 e1 12 2e bd 21 1b 51 bd d6 41 20 be fc a1 18 be
       -0.042498473 -0.051051263 -0.15650114 -0.14905542
000050 3d bb bc bd cc b8 b1 bd 8e ae 09 be 9b d3 fc bd
       -0.092154 -0.08677825 -0.13445494 -0.12345048
000060 5a 7d c7 bd 08 3c a9 bd 05 83 26 be 0b 9e 8f bd
       -0.09740706 -0.08263403 -0.16260917 -0.07012566
000070 29 a5 b8 bd a3 98 b3 bc 40 e0 e6 bc 63 1c 90 bd
       -0.09015877 -0.021923369 -0.028183103 -0.07036664

net.3.bn1.running_mean f4 [32]
000000 d5 9c 5d bd d9 aa 3d bd b8 2a 63 be 68 d7 90 be
       -0.054104645 -0.04630551 -0.22184265 -0.28289342
000010 bf 6b b6 3d bb d0 76 be 86 7a 28 be e2 9a 83 be
       0.0890727 -0.24103062 -0.16452989 -0.25704104
000020 e4 3a b9 bd 95 e3 bc be 54 23 fd be 60 7c 3d be
       -0.090444356 -0.3689238 -0.49441016 -0.18504477
000030 90 59 af be 90 3c a9 3d 3e b8 00 bf 94 d6 64 be
       -0.34248018 0.082635045 -0.5028113 -0.2234748
000040 4a 55 04 be c7 77 ab 3d cd 53 31 be 98 b2 8f bd
       -0.1292316 0.08372455 -0.17317124 -0.07016486
000050 17 e7 e7 bd 8c 9d dc be b0 57 f5 b9 38 3c c8 be
       -0.11323374 -0.4308895 -0.00046795374 -0.39108443
000060 79 85 30 be 77 60 97 bd b1 b5 07 be 71 8b 9e be
       -0.17238416 -0.07391446 -0.13252904 -0.3096576
000070 e5 63 9c 3c 73 7b 87 3e 96 f6 bf bd d2 56 57 be
       0.019090602 0.26461372 -0.093732044 -0.21029213

net.3.bn1.running_var f4 [32]
000000 ba 3a 8a 3e 0d 10 ed 3e 29 9c d2 3e 4e 01 de 3e
       0.2699793 0.46301308 0.41134766 0.4336037
000010 8d 91 93 3e 83 0a e4 3e 67 bd 10 3f 33 18 33 3f
       0.28821984 0.4453927 0.56539005 0.699588
000020 90 dc af 3e 33 c4 00 3f 39 96 c1 3e 1b f6 d6 3e
       0.34347963 0.50299376 0.37809923 0.4198464
000030 8e ff fd 3e f4 2c 97 3e 74 e1 5d 3f 75 cc c7 3e
       0.49609035 0.29526484 0.8667214 0.39023176
000040 2a a4 cc 3e 35 6d 86 3e 2d 7d 20 3f 15 53 7f 3e
       0.39968997 0.26255193 0.62691003 0.24934037
000050 7b b6 d6 3e 24 14 e9 3e 34 91 97 3e 7d f3 ec 3e
       0.41936097 0.4552318 0.2960297 0.46279517
000060 02 d1 bd 3e a5 54 f1 3e 28 fa a6 3e e0 8d dd 3e
       0.37073523 0.4713489 0.3261273 0.43272305
000070 2b f9 a2 3e 1b d4 9f 3e 32 50 c8 3e d4 dc b2 3e
       0.31830725 0.3121651 0.39123684 0.34934103

net.3.conv2.weight f4 [32, 32, 3]
000000 21 13 81 3d 40 e3 00 3e fa ca d9 3c 61 f9 dd 3d
       0.06302477 0.12586689 0.026586045 0.10838581
000010 fd 1e 9b bd 02 e8 e2 3c 56 42 77 bc 87 0d 6f 3c
       -0.0757427 0.02769852 -0.015091499 0.0145906275
000020 ec 6f b1 bc 4b 8c e3 3c ed b8 9a bc 8e af 3c bd
       -0.021659814 0.027776858 -0.018887008 -0.04606586
000030 67 4d 86 3d 1c 34 03 be 37 6d 3a be 61 d8 cf bd
       0.06557732 -0.12812847 -0.18205725 -0.10148693
000040 00 d1 9f bc fd dd 51 bd 97 6b 20 3e 7e 5b c3 3d
       -0.019508839 -0.051237095 0.15666042 0.09538935
000050 8a 19 7f bd 6d 5d 0c bd b5 fa 4d bd 36 4e ec bd
       -0.062280215 -0.034268785 -0.05028792 -0.11538355
000060 54 51 c7 bc 7f 21 cb 3d ec c2 14 3e ce 90 d2 3d
       -0.024330772 0.09918498 0.14527482 0.102815256
000070 37 f5 e4 bc 12 8d c3 3d 52 d3 0e bd 56 68 77 3d
       -0.027948959 0.095483914 -0.0348695 0.060402237
000080 c6 0d c9 bc 18 1b 99 bd dc 16 97 3c e0 6e b1 3d
       -0.0245427 -0.07475871 0.018443517 0.08663726
000090 9b 0c 17 3c ff 98 6e bc 01 8d 9f 3d 60 22 ff bd
       0.009219314 -0.014562844 0.07790566 -0.124577284
0000a0 07 b4 16 be 62 4d 0b 3d ff 39 45 3d f2 a9 cd bd
       -0.14717112 0.034009345 0.048151013 -0.1004218
0000b0 49 50 1c 3d 4a 59 ed 3d 50 d5 7a bd 86 d8 f6 bc
       0.038162503 0.11589296 -0.061238587 -0.030132543
0000c0 60 f2 a2 3c bb 6f be bc 12 d9 23 be db f5 a9 3d
       0.019890964 -0.023246637 -0.16000775 0.08298846
0000d0 5e d4 20 3d 2d 64 06 bd 8d 03 0e be fd 0f 01 be
       0.03926503 -0.03281038 -0.13868542 -0.12603755
0000e0 62 91 83 bd cc ec 71 3d a5 fa bf bc 6d b5 c1 bd
       -0.06424214 0.059063718 -0.023434946 -0.09458432
0000f0 37 68 6e 3d 5b a5 0e be 98 cb 16 bd bd 80 d0 3c
       0.058204856 -0.13930266 -0.036815256 0.025452012
000100 cd 55 1a 3d 0c b7 89 3d d8 6e b8 39 54 74 64 3c
       0.037679482 0.067243665 0.000351778 0.01394375
000110 f4 ab 88 3d 36 1f dc 3b 5c 8f 26 be 60 ac 6a be
       0.066734225 0.006717588 -0.16265625 -0.22917318
000120 51 7e 16 3e ef 8b 9f bc e0 6a a0 3d 5c f0 0e 3e
       0.14696623 -0.019475905 0.07832885 0.13958877
000130 2c be 06 3e a0 4e 97 3d fc 5f 8a 3d 63 ee 6a 3d
       0.13158482 0.073880434 0.06756589 0.05735625
000140 ac c7 73 bd 0a c5 36 3d 86 31 b5 3d 1f b0 d3 3d
       -0.059516594 0.044621505 0.088473365 0.10336327
000150 eb ce 24 bd 4d d6 1e 3c 1c ea de bc 94 70 bf 3c
       -0.040236395 0.009694648 -0.027211241 0.023369111
000160 46 e5 cb bd fe 69 33 be c9 0c d7 3d 92 3e 9e 3b
       -0.0995584 -0.17520902 0.105004855 0.0048292363
000170 85 9e 87 bc ab 1f bb bd 97 86 b6 bd 8a 15 d1 3d
       -0.01655508 -0.091368996 -0.0891239 0.102091864
000180 5f 35 29 be c3 23 3a 3d c4 3e c3 3d cb 37 e5 3c
       -0.16524266 0.04544426 0.09533456 0.027980706
000190 c0 e2 37 bd bd 42 d2 bd 8c ec 99 bb fc bc 12 be
       -0.04489398 -0.102666356 -0.004697388 -0.14329904
0001a0 6f 64 97 bd 04 7a 6f 3c 43 e1 ad bc fc 72 2b bd
       -0.07392203 0.014616493 -0.021225577 -0.041857705
0001b0 1a 8a 70 bb 05 30 11 3d 33 48 8d bc c2 17 16 3d
       -0.0036703409 0.035446186 -0.017246341 0.03664375
0001c0 a9 54 ee 3c 02 c3 a7 3d 3a a4 3f be 05 72 f1 bc
       0.029093103 0.08191492 -0.18714991 -0.029473314
0001d0 95 a4 c8 bd f6 8c e7 bc f2 01 05 be e2 94 02 3d
       -0.097970165 -0.028265458 -0.12989023 0.031880267
0001e0 c3 65 07 3e 76 76 6a 3d a9 05 00 bd 4f 66 0d 3d
       0.13222413 0.05724188 -0.031255398 0.034521397
0001f0 2a 81 7b 3d 57 dd e1 3d d8 01 ea bd 7c 1c e0 3d
       0.061402477 0.11028545 -0.11426133 0.10942933
000200 c6 38 73 3d bf 3b d3 bc 0b 71 8d 3d 53 03 a7 bd
       0.059380315 -0.025785325 0.06906327 -0.08154931
000210 38 a2 d0 bd bf bb c5 bd 9a bd 5e bd 78 be d0 bc
       -0.10187191 -0.0965495 -0.054380037 -0.025481448
000220 2c de ab bd 6b 94 6a bc 95 15 d1 3d 4d c6 a1 3d
       -0.08391985 -0.014317612 0.102091946 0.07899151
000230 fe af 17 3d c7 81 88 3b 11 9f 82 3d e1 a4 58 3d
       0.037033074 0.0041658613 0.06377996 0.052891616
000240 a2 49 51 bd aa 5b c7 bd 64 87 2e be d5 5e 42 3c
       -0.051095612 -0.097342804 -0.17043835 0.01186343
000250 0a 77 9a 3d 2d f9 01 bd 67 4e 0c be 86 16 97 bd
       0.07542236 -0.031731773 -0.13701783 -0.07377343
000260 9e 99 b5 bd 5f f6 1b be b7 79 4e bd 4e f5 d7 bd
       -0.08867191 -0.15230702 -0.050409045 -0.10544835
000270 92 b0 08 bc b4 b3 9e bd d4 a7 14 3d 5d 62 81 3d
       -0.008342879 -0.077491194 0.036292866 0.063175894
000280 0c 34 5f 3d a0 f1 05 be dc 0f f9 bd e6 7b 25 3d
       0.054492995 -0.13080454 -0.12161228 0.040401362
000290 fd 5f 5f 3e ef 1f 01 3d c8 de 8f bd e7 bd 95 be
       0.2181396 0.031524595 -0.07024914 -0.29246446
0002a0 6e c2 3f bd ef 22 09 3c 6c e0 e6 3d b4 65 2d 3c
       -0.046816282 0.008370145 0.11273274 0.01058333
0002b0 4e 8d 85 3c ee f7 43 bd d3 ec 2f 3e 3f 65 89 3d
       0.01630273 -0.047843866 0.17180185 0.06708764
0002c0 97 20 23 be 9f 46 43 3e cf 75 dd 3c b8 12 a7 bb
       -0.15930401 0.19069909 0.027033715 -0.005098667
0002d0 fc 5b 96 3c 03 97 0f be c0 eb 11 be 93 89 d9 3d
       0.018354408 -0.1402245 -0.14250088 0.10621943
0002e0 26 18 53 3d 0c b7 a6 bd e8 aa 01 3c ff 01 f9 3d
       0.0515367 -0.08140382 0.007914282 0.12158584
0002f0 7d f6 c0 3d 4b 0b f8 bd 99 6e 0e 3d 56 5a ee 3d
       0.09422014 -0.12111529 0.034773443 0.11638324
000300 8f 15 cf bd 49 51 c4 bd 12 11 07 bd 96 77 8e bd
       -0.10111534 -0.095858164 -0.032975264 -0.06956403
000310 76 30 dd bc 2f 29 cb 3c 23 07 07 bd 62 d6 8b 3d
       -0.027000647 0.024799911 -0.03296579 0.06828
000320 c7 c4 b3 3d 1f fd 96 bc a9 43 97 bd ca 72 8c 3d
       0.08777767 -0.018431244 -0.07385952 0.06857832
000330 ac 2e df bd 44 ba b8 3c 7a 92 66 bc ad 34 1c bc
       -0.10897574 0.022549756 -0.014073009 -0.009534043
000340 55 05 0e bd 02 ab 74 3b 08 9b 7f ba bc e0 3d 3d
       -0.034673054 0.0037333374 -0.00097505795 0.0463569
000350 7f 09 91 bc ac cc b0 bc da 95 31 be c7 82 0b be
       -0.017704723 -0.02158197 -0.1734232 -0.13624106
000360 18 c7 03 3d 3a a6 11 bd 04 66 26 3d aa 04 43 be
       0.032172292 -0.035558917 0.040624633 -0.19044748
000370 bb 5b 50 be 74 35 fe bd 64 f2 05 be 00 7e 29 be
       -0.20347492 -0.12412539 -0.13080746 -0.16551971
000380 eb 20 82 bc 52 93 a0 bd 24 1d 50 3b 72 32 0c 3d
       -0.015884837 -0.07840599 0.003175565 0.034227796
000390 67 e0 5e 3d 46 5d d5 3d ee 5f db 3d f8 41 54 bd
       0.054413226 0.10418181 0.107116565 -0.051820725
0003a0 a2 f8 e7 bd 0c 4d 9c bd 0c df 8d 3d 30 da 24 bd
       -0.1132672 -0.07631883 0.069273084 -0.040247142
0003b0 1a 47 0a 3d 77 d1 1b 3d 59 f3 04 3d 89 f0 0d bd
       0.033759214 0.038041558 0.032458637 -0.03465322
0003c0 4d a6 9f 3c b7 f4 d5 bd ba 9d dc bd 7f 39 c9 3d
       0.019488478 -0.10447066 -0.107722715 0.0982542
0003d0 00 e4 44 3d b8 c3 b3 bd eb 34 fa bc 08 60 5d bc
       0.048069 -0.08777565 -0.030542811 -0.013511665
0003e0 da 99 9d 3c b2 bf 10 bd 33 cf d2 bc 82 9c 0d 3e
       0.019238401 -0.035339065 -0.025733566 0.13829234
0003f0 5e a5 f0 bd 26 ad a5 bc 4c 43 22 be dc 78 b8 3d
       -0.11750291 -0.020224165 -0.15845984 0.09007427

net.3.conv2.bias f4 [32]
000000 b0 ed 92 bd eb 9b 8f bc 6a 73 8e bd af 9b 80 bd
       -0.071742415 -0.017530402 -0.06955607 -0.06279694
000010 57 f4 d7 3c 4d 34 1a 3d ea db ff bd c9 8e 64 3d
       0.026361628 0.037647534 -0.12493117 0.055800233
000020 c3 da b2 3d 13 6f 6a bc df 62 a6 3d 09 7e b2 bd
       0.08733132 -0.014308709 0.08124327 -0.087154455
000030 18 30 85 bd f5 d1 ba 3c f2 ee 8f bc c0 01 70 3d
       -0.06503314 0.022805193 -0.017569993 0.05859542
000040 9e 68 8a bd 98 17 9e bd d9 f7 c8 bd 20 90 ce 3d
       -0.067582354 -0.07719344 -0.09812898 0.100860834
000050 1a 70 20 bd 44 61 a6 bd f2 d8 90 bd f8 c9 2c ba
       -0.03916941 -0.08124021 -0.07072629 -0.0006591375
000060 51 8c 12 3d aa 47 bd bd 40 33 3a bd 52 25 3b 3d
       0.035778347 -0.092421845 -0.045459032 0.04568989
000070 ee 14 5e 3d 5e b1 c2 bc b1 2e d4 3d 33 ab 4d bd
       0.05421918 -0.023766216 0.10360468 -0.050212096

net.3.bn2.weight f4 [32]
000000 4f 71 8c 3f 1a 7e 8d 3f 3a d1 8a 3f 88 10 8b 3f
       1.0972079 1.1054108 1.0845101 1.086442
000010 06 69 6a 3f 5d 0a 81 3f cc 22 82 3f b9 d5 84 3f
       0.91566503 1.0081288 1.0166869 1.0377723
000020 b3 78 85 3f 8d b9 8d 3f 87 13 94 3f 9d 89 77 3f
       1.042746 1.1072251 1.1568459 0.96694356
000030 a3 03 8b 3f 7f 8f 7f 3f dd 48 82 3f ff f1 74 3f
       1.0860485 0.9982833 1.0178486 0.95681757
000040 a9 f1 8e 3f 63 14 6f 3f 70 9d 81 3f fd 7f 8c 3f
       1.1167499 0.9339048 1.0126171 1.0976559
000050 fd 34 87 3f 9a a5 80 3f 77 a4 83 3f 71 0b 91 3f
       1.0563046 1.0050538 1.0284566 1.1331617
000060 1f f0 89 3f df 78 87 3f b7 19 94 3f 98 b3 75 3f
       1.0776404 1.0583762 1.1570348 0.95977163
000070 36 0c 89 3f 2e b7 84 3f 48 31 7f 3f 43 31 8b 3f
       1.0706851 1.0368402 0.9968457 1.0874408

net.3.bn2.bias f4 [32]
000000 79 e7 58 bd fd 76 28 be b1 59 c7 bd c9 b4 41 bd
       -0.052955125 -0.1645164 -0.09733904 -0.04729155
000010 3d c5 aa bb 56 74 2f be 3e bf ce bd 12 2a b8 bc
       -0.005211501 -0.17134222 -0.1009507 -0.022480998
000020 6e 3c 6c bd 9f 28 2e 3b 61 bf 7f bd 3f d1 26 bd
       -0.057674818 0.0026574505 -0.062438373 -0.040726896
000030 f4 5f 54 bc 22 99 15 bd 27 3c e1 bc 96 b2 00 be
       -0.01296233 -0.036522992 -0.027494503 -0.12568125
000040 b8 78 42 bd 14 85 fc bd d6 af b3 bd 19 b5 3e bd
       -0.047478408 -0.1233007 -0.087737724 -0.046559427
000050 20 d8 8f bd e7 bb 96 bd a4 4f 24 bd c9 40 49 bd
       -0.070236444 -0.07360058 -0.040115014 -0.04913405
000060 69 3d f4 bd e0 5e a2 bd 69 90 c7 bd d2 ee 6b bd
       -0.119257756 -0.07928252 -0.09744341 -0.057600804
000070 7a d9 0f bd 07 6d ca bd 7c aa e4 bd f5 1c 75 3c
       -0.03511951 -0.098840766 -0.1116533 0.014960517

net.3.bn2.running_mean f4 [32]
000000 22 5b 97 bd 28 d5 d0 bd b1 ce ca be 08 1f 9d be
       -0.07390429 -0.10196906 -0.39610818 -0.30687737
000010 91 1f df bd 65 aa 8d 3c 38 af b4 be 03 ea a3 bd
       -0.10894693 0.017293165 -0.3528993 -0.080036186
000020 8e c2 93 3c 54 88 8a bc 02 02 90 bd 3f 67 09 bd
       0.018037107 -0.01691071 -0.07031633 -0.03354573
000030 73 62 51 be 0e 3c ba bd 3c 15 78 be be 51 f9 3d
       -0.20447712 -0.09093486 -0.2422685 0.12173794
000040 2e 7d 48 be 70 ce 8e bb 72 e1 37 bc 5a d2 14 bd
       -0.19579002 -0.0043581054 -0.011223184 -0.03633342
000050 f5 7f 91 be 23 af 17 be cf 2e 51 be 03 15 16 be
       -0.28417936 -0.14812903 -0.20428012 -0.14656453
000060 6a 73 2b be 60 8d bb be 17 43 8d be d4 39 b3 bd
       -0.16743246 -0.36631298 -0.27590248 -0.08751264
000070 08 72 cb bd ba a6 8e be 7d c9 0e 3e df 93 7d be
       -0.09933859 -0.27861577 0.13944049 -0.2476344

net.3.bn2.running_var f4 [32]
000000 e1 17 21 3e 73 16 4a 3e a1 1a fa 3e aa e9 6a 3e
       0.15731765 0.19735126 0.4884844 0.22940698
000010 99 53 61 3e ad 21 1e 3e ce c4 a0 3e 08 ba 91 3e
       0.22004546 0.15442534 0.3140015 0.28462243
000020 b5 67 2a 3e c9 60 33 3e ca a4 79 3e c4 b8 0f 3e
       0.16641124 0.1751739 0.24379268 0.14035326
000030 61 b4 3d 3e be 63 98 3e a6 9e 9c 3e a8 44 2e 3e
       0.1852584 0.29763597 0.3058979 0.17018378
000040 60 a0 7a 3e ab 1b 55 3e c5 75 c2 3d d3 eb 9e 3e
       0.2447524 0.20811336 0.09495119 0.31039295
000050 9b ad a5 3e bd 16 62 3e ff d5 71 3e 2c 39 40 3e
       0.32359013 0.22078986 0.2361679 0.1877181
000060 0b 03 53 3e 2b 4a c0 3e b3 dd 6d 3e af 81 49 3e
       0.2060663 0.37556586 0.23229103 0.19678377
000070 56 ed ae 3e 0a 53 3f 3e 4a 82 61 3e f0 72 88 3e
       0.34165448 0.1868402 0.22022358 0.2665019

net.4.conv1.weight f4 [64, 32, 3]
000000 50 a3 be bd 97 f6 38 bd d5 40 46 3d 44 71 5f 3d
       -0.09308493 -0.04515704 0.048401672 0.054551378
000010 8c 53 eb 3c 55 1f 4e 3d e6 22 49 bd c1 ec c2 bc
       0.028726362 0.05032285 -0.049105547 -0.023794534
000020 80 37 e0 3d 7f 3f a0 3d de b6 be 3c 73 67 1d 3c
       0.10948086 0.07824611 0.023280557 0.009607184
000030 57 d9 93 3d 02 42 9b 3c ae 08 1c bd 2a c5 16 bc
       0.07219189 0.018952373 -0.038094215 -0.009202281
000040 b4 93 f9 3d c6 c8 b5 3d 92 21 ad bd 80 9f ed bc
       0.12186375 0.08876185 -0.08453669 -0.02900672
000050 5a 37 1b 3e 61 f0 2d bd 06 15 b3 3c f5 2a c1 bb
       0.15157834 -0.04246557 0.02186061 -0.0058950135
000060 f0 19 6f 3d ad 2a 80 bd 0b 67 98 3d d2 7a 6b bc
       0.058374345 -0.0625814 0.07441529 -0.014372544
000070 d2 8e 98 3d 4b f3 69 3d d2 8d 85 3d 27 fd 2e 3d
       0.07449116 0.057116788 0.06521191 0.042721894
000080 1c f1 bf bd 4f 17 07 be d2 9c 00 be 99 e6 df bd
       -0.0937216 -0.13192485 -0.12559822 -0.10932655
000090 47 72 f0 bd 7c 9a 54 3d 05 42 39 3e be 51 30 3d
       -0.11740547 0.05190514 0.1809159 0.043046705
0000a0 92 d5 4c bd ff 9e 21 3a b4 be 69 3c 8f 01 95 bd
       -0.050008364 0.0006165355 0.014266659 -0.07275688
0000b0 62 ac 89 bd aa a0 e8 bd b1 59 96 3b eb 1f 05 be
       -0.067223325 -0.11358769 0.004588329 -0.13000457
0000c0 41 90 26 3e d5 1b 7e 3d 82 f1 5a 3e ba 34 29 bd
       0.16265966 0.06203826 0.2138119 -0.04131005
0000d0 a4 f2 65 3d 1a 1e e6 3d 1c 85 cb 3d dc 0d ae bc
       0.056139603 0.1123621 0.09937498 -0.021246843
0000e0 05 6f ae 3d 04 08 aa 3d 33 bd 05 bd d0 9c 7f 3d
       0.08517269 0.0830231 -0.032651138 0.062405407
0000f0 d5 ea 03 3e c5 b3 8c 3d fc 7e 75 3d ab 01 81 bc
       0.1288255 0.06870226 0.059935555 -0.015747866
000100 2e e8 86 bc a8 d6 b3 bd f1 f3 ac bc fe 26 d7 3c
       -0.016468134 -0.08781177 -0.021112414 0.02626371
000110 4f a4 a1 bd 17 7e 0e 3d fc 3e c1 bc e8 1f 0d bd
       -0.078926675 0.034788217 -0.023589604 -0.034454256
000120 37 5a 50 bd d2 f7 42 bd aa af cd bd b5 c8 96 bd
       -0.050867286 -0.04759962 -0.10043271 -0.073625006
000130 dc 9b b0 bd cd 1c 0c be 1e 63 33 be 4b c6 19 be
       -0.08623478 -0.13682862 -0.17518279 -0.15017049
000140 2e 5e f4 bd 15 36 2e 3c 5a 53 30 3d 2d eb d2 3d
       -0.11932026 0.010633011 0.04304824 0.102987625
000150 a1 30 db bd 98 b2 4a bd 0e 81 8f bc 9f c6 b4 bd
       -0.107026346 -0.049486727 -0.017517593 -0.088269465
000160 2c 8b d4 bc b0 92 be 3d 51 5b ee bd d7 84 1f 3d
       -0.025945269 0.09305322 -0.11638511 0.038945045
000170 8a 43 01 3e 20 d3 28 3e 78 a2 85 3d d5 da 1a 3d
       0.1262342 0.16486788 0.06525129 0.03780635
000180 4d 9f a0 bd 67 f8 7f 3d fd 22 df b9 2b 51 f3 3d
       -0.07842884 0.062492754 -0.00042559943 0.11880716
000190 24 bf f4 3d 0a b2 53 bd 9e d5 42 3e 16 5e 8b 3d
       0.1195052 -0.051683463 0.19026801 0.06805055
0001a0 86 15 a9 3d d8 27 c9 3d 99 7f cf 3d 42 42 02 3e
       0.082560584 0.09822053 0.10131759 0.12720588
0001b0 6e 91 b8 3d f8 27 16 bc 30 bc 3c bd f0 8c 10 be
       0.090121135 -0.009164803 -0.046077907 -0.14116263
0001c0 dd ae 24 be 97 be 04 be 2e 3f 10 3e f3 56 19 3e
       -0.1608233 -0.1296333 0.14086601 0.14974575
0001d0 c1 9b b5 bc 97 4f f7 3d fd 10 01 3e 39 59 09 bd
       -0.022168996 0.120757274 0.12604137 -0.033532355
0001e0 b7 09 48 bd 4a f1 b5 bd 6c b4 27 3d fb 0f 5d bd
       -0.04883739 -0.08883913 0.040943548 -0.05397032
0001f0 04 25 ef 3d dd 3e fa 3d 63 e6 ac 3d 0a ac c4 3b
       0.11676982 0.122190215 0.0844238 0.006001954
000200 f2 51 07 bd d9 29 eb bb 77 7d 2d 3d 31 d7 8e 3b
       -0.033037134 -0.0071766195 0.04235598 0.004359149
000210 b5 80 1f bd 66 e5 f6 3c 09 80 90 bd ec 8f 54 bb
       -0.038941104 0.030138683 -0.07055671 -0.0032434417
000220 77 40 b9 bd 7b b8 09 bd 2c b1 e1 bd 66 fe 42 be
       -0.09045499 -0.0336232 -0.11020121 -0.19042358
000230 aa 55 0d bd f3 6d cf bd 10 a5 67 bd 75 f5 dd bc
       -0.034505524 -0.10128393 -0.0565539 -0.027094582
000240 c8 42 6c bd d5 47 6a bd fb 03 29 be 44 52 4c be
       -0.057680875 -0.05719741 -0.16505425 -0.19953257
000250 2e 93 2d be ec ce 86 bd bf 64 10 bd c6 45 92 bc
       -0.16950676 -0.06582436 -0.03525233 -0.017855536
000260 6f 55 ac bc ee 6f 38 bd a3 6c e4 bd da 35 ab bd
       -0.021036832 -0.04502862 -0.11153533 -0.08359881
000270 9b 11 ab ba 08 58 cf 3d 53 ee ca bc 33 0d dc 3b
       -0.0013051511 0.101242125 -0.024771845 0.0067154407
000280 b9 86 92 3c 6a 43 11 bd cd 5d 5d be 0f a1 1b be
       0.017886506 -0.03546468 -0.21617813 -0.15198158
000290 1a e6 0f be 9d fe 8a bd 89 19 23 3d eb e0 00 3b
       -0.1405262 -0.06786845 0.039819274 0.0019665312
0002a0 78 46 4b bc 70 a0 e5 bd a6 43 94 3c f8 90 4d bc
       -0.012406938 -0.11212242 0.018098664 -0.01254677
0002b0 7e 0c ce 3d 1d 90 95 bd fb 6e e5 3d 0d 2a b8 3d
       0.100609764 -0.07302878 0.112028085 0.089923956
0002c0 63 98 62 3c 6d 7e ac 3c 0c 17 48 bd 16 2f 89 bd
       0.013830277 0.021056378 -0.048850104 -0.06698434
0002d0 77 fe e1 bd ad 58 b4 3c 09 ae e0 bd bc c7 bb bd
       -0.110348634 0.02201494 -0.109706946 -0.09168956
0002e0 af b1 09 3c 07 64 c3 3a 86 bd 5a 3d b0 72 04 be
       0.0084041795 0.001490713 0.0534034 -0.12934375
0002f0 30 4c 14 3c ae c0 18 3e 00 26 ca 3a df 65 05 3c
       0.009051368 0.14917251 0.0015422702 0.008141964
000300 0f ed d7 bc a3 01 1c bd 46 a3 cf bd 53 39 3e 3d
       -0.026358156 -0.0380875 -0.10138564 0.046441387
000310 0a c1 54 bd 2c 69 2e be a7 d6 2f be 1b 96 7c bd
       -0.05194191 -0.17032307 -0.17171727 -0.06166659
000320 bc 02 14 3d 97 4b bd bd 91 21 48 bd 4b 7b 6e 3d
       0.03613542 -0.09242933 -0.048860136 0.05822305
000330 23 9d cc bd 0e c5 ca 3d 57 10 8c 3b 73 af 11 be
       -0.09990909 0.099008664 0.004274409 -0.14227085
000340 01 3c 9d bd 32 38 3c be 4d 2d 85 3c 55 ac 99 bd
       -0.076774605 -0.18380812 0.016256953 -0.07503573
000350 ad 52 ec bc 93 58 29 be 61 b3 d8 3c ac 9c 10 3d
       -0.028848017 -0.16537695 0.026452722 0.035305664
000360 6e 1b c7 bd 42 0e 05 3d e0 b0 90 bc e0 ad ae 3d
       -0.09722029 0.0324843 -0.017662466 0.08529258
000370 89 39 f4 3d f1 ae 23 3e 44 82 15 be a5 89 a2 bd
       0.119250365 0.15984704 -0.14600474 -0.0793641
000380 8a 9f b0 3d 2b b7 94 bd 3b a4 02 bb cb d4 94 3b
       0.0862418 -0.07261499 -0.0019934315 0.0045419685
000390 7a a8 35 3d 07 6e 1d bd 8a bd 05 be 6b 4e 05 be
       0.044350125 -0.03843501 -0.13060585 -0.13018195
0003a0 36 e5 e8 bc 36 c6 c7 bc d5 35 4f be a1 7e 9c bb
       -0.028429609 -0.024386507 -0.20235379 -0.0047758375
0003b0 a4 db 6b 3d c9 30 90 3c 2d 8c ff bd d3 7e b5 3d
       0.057582512 0.017601388 -0.12477908 0.088620804
0003c0 e9 01 ce bd dd 6a cf 3d ce b2 12 3d 36 6f 20 3c
       -0.10058958 0.101278044 0.035815053 0.00979214
0003d0 87 65 a0 bd d3 64 80 bd ac 0e db 3d d1 91 1c 3d
       -0.07831865 -0.06269231 0.10696158 0.038225
0003e0 04 6a 1d 3d 7f 7a 84 3d 7f c0 27 3d 2e fc fa 3d
       0.038431183 0.06468677 0.040955063 0.12255131
0003f0 55 d5 f0 3c 84 b7 bf 3a d9 b7 80 bd 27 8a ea bd
       0.0293986 0.0014626835 -0.06285066 -0.11452132

net.4.conv1.bias f4 [64]
000000 55 74 c2 3d 5a bd 8b 3d 66 88 9a bc 22 93 dd 3c
       0.09494845 0.06823225 -0.018863868 0.027047697
000010 51 97 9f bd 87 96 aa 3d e9 2d 44 3d 8f 4e 4e 3d
       -0.07792533 0.08329492 0.047895346 0.050367888
000020 95 de bb 3d d3 a8 d6 3c 71 9b cc 3d 7f 0a 85 3d
       0.091733135 0.026203549 0.099905856 0.064961426
000030 a1 6e 2b 3d ae 0b 21 3d 18 87 84 3d f3 db 80 3d
       0.04185355 0.03931778 0.064710796 0.06291952
000040 92 80 49 bd 7d fa 6d bb ba b9 b8 3c 3d a7 84 3d
       -0.04919488 -0.0036312633 0.022549499 0.06477211
000050 ff 8e 86 bd 26 cd c6 bd cb 14 b4 3d b2 c7 96 3c
       -0.06570243 -0.09707098 0.087930284 0.018405769
000060 19 09 2a bd 07 6e 3d bd ac 74 8a bd f9 0d 36 bb
       -0.041512582 -0.04624751 -0.06760535 -0.0027779324
000070 d9 d2 3b 3d 84 22 69 bd 77 df f0 3c 3e 3f ae bd
       0.045855377 -0.056917682 0.029403431 -0.08508156
000080 3d 63 9b bd 31 d8 83 3d fa 4f b9 bd 81 00 3d bd
       -0.075872876 0.064377196 -0.090484574 -0.04614306
000090 16 af e0 bc 67 7d c2 3d 1a d3 d5 bd 9e 4f 0a 3d
       -0.027427237 0.09496575 -0.10440655 0.033767335
0000a0 7d 6d 80 bd 92 31 c8 3d a5 04 55 bc 28 48 d8 bc
       -0.06270883 0.0977508 -0.013001596 -0.026401594
0000b0 9b 08 96 3c 39 e9 4e bc 90 6e ff 3b 0f 2c 9e 3d
       0.01831465 -0.012628847 0.0077951625 0.07723247
0000c0 d2 02 a0 bc 6e 4f 86 3d 9a 55 92 bc cd 0c f9 bc
       -0.019532595 0.06558119 -0.017863084 -0.030401612
0000d0 38 cf b3 3d 22 a3 99 bd 95 d6 34 bd 0a 6b e3 3c
       0.08779758 -0.07501818 -0.044149954 0.027761001
0000e0 8e 1c a8 bd 3c 28 3c 3d d1 52 41 3d c4 80 98 bc
       -0.082085714 0.045936808 0.04719812 -0.018616088
0000f0 a4 58 02 3d 17 b8 2a bd 06 eb 9c 3c 00 9c c8 3c
       0.031822816 -0.041679468 0.019155037 0.02448845

net.4.bn1.weight f4 [64]
000000 6e 7b 7a 3f 0b 80 80 3f df 99 85 3f a7 d9 85 3f
       0.9784459 1.0039076 1.0437583 1.0457047
000010 5c 22 89 3f 6f 04 83 3f b6 7f 7c 3f 51 43 8c 3f
       1.0713611 1.0235728 0.9863237 1.0958043
000020 07 ab 64 3f 3b 1f 86 3f 0f 12 6e 3f 14 6d 99 3f
       0.89323467 1.0478281 0.92996305 1.1986413
000030 c9 d0 89 3f 74 d3 94 3f 8d 35 81 3f e8 fb 81 3f
       1.0766841 1.162703 1.0094467 1.0155001
000040 cc c1 7b 3f d9 d5 89 3f f9 1b 86 3f 13 1a 8a 3f
       0.98342586 1.0768386 1.0477287 1.0789207
000050 d0 fe 8d 3f b2 52 80 3f 4e 62 74 3f 90 0f 85 3f
       1.1093388 1.0025237 0.954625 1.0395374
000060 1c eb 7d 3f a9 d9 79 3f e3 ef 85 3f ab dc 7a 3f
       0.99186873 0.9759775 1.0463833 0.9799296
000070 03 4a 72 3f 8f 1f 8c 3f c8 47 85 3f 72 e6 82 3f
       0.9464418 1.0947131 1.0412531 1.0226576
000080 6f c5 81 3f af 06 81 3f 3d 96 8e 3f 9a 52 82 3f
       1.0138377 1.0080165 1.1139599 1.0181458
000090 02 68 83 3f 6a 60 8b 3f 60 46 89 3f 93 5a 81 3f
       1.0266116 1.0888798 1.0724602 1.0105766
0000a0 ae a2 85 3f c7 22 81 3f 0e 5d 87 3f ab 2a 66 3f
       1.0440271 1.0088738 1.0575273 0.89908856
0000b0 03 ec 77 3f 46 a5 81 3f b9 5b 82 3f 93 67 80 3f
       0.968445 1.0128562 1.0184242 1.0031608
0000c0 f7 e6 6c 3f c7 9f 72 3f 80 e5 96 3f a1 57 90 3f
       0.92539924 0.9477505 1.1788788 1.1276742
0000d0 99 96 86 3f 08 f7 8b 3f 95 99 81 3f 3a 38 8e 3f
       1.0514709 1.0934763 1.0124995 1.1110909
0000e0 2d fc 77 3f 5f ca 85 3f bf 2c 78 3f 35 86 75 3f
       0.96869165 1.0452384 0.9694328 0.9590791
0000f0 f5 31 87 3f 5b 24 6f 3f aa 13 83 3f 2c a9 8a 3f
       1.0562121 0.9341485 1.0240376 1.0832877

net.4.bn1.bias f4 [64]
000000 84 15 ed bd 0f 97 a4 bd 41 69 f1 3c 0a e1 98 bd
       -0.115763694 -0.08036625 0.029469134 -0.07464798
000010 1a a5 f0 3c bc e2 90 bc 80 32 dd bd 58 f5 18 bd
       0.029375602 -0.01768624 -0.10800648 -0.037343353
000020 ff c0 d2 bd e4 ec 2d 3c e1 ec d1 bd bd 18 c6 bd
       -0.10290717 0.010615561 -0.10250259 -0.09672687
000030 d6 0b 80 bd 5e 39 2b 3d 20 3a 7a bd 14 ba 2e bc
       -0.062522575 0.041802756 -0.06109059 -0.010664482
000040 4e 6f ae bd 64 67 1b bd 84 a0 71 bd 8e 3a 6c bd
       -0.085173234 -0.037940398 -0.05899097 -0.05767303
000050 f9 d2 18 bd 76 c5 4e bd 53 ed 66 bc 88 c9 e9 3a
       -0.037310574 -0.050481282 -0.014094668 0.001783655
000060 2e 11 08 3d 04 5e c4 bd f9 e1 3a bd a9 ec 9b bd
       0.03321951 -0.095882446 -0.04562566 -0.07613499
000070 36 ef ae bb 9f 8f 02 bc 98 0a c2 bd c3 0f a0 bd
       -0.0053385748 -0.007968812 -0.09474677 -0.07815506
000080 73 6b 1d bc 1a 2f ae bd 39 97 78 3c 08 3d 83 bd
       -0.009608137 -0.08505078 0.015172773 -0.06408125
000090 dc f4 05 bd ff c2 12 bd ae 8e 9d bd 93 b1 f6 bc
       -0.03270422 -0.035830494 -0.076932296 -0.03011397
0000a0 dc 41 d5 bd 7b 31 64 bd 6f af bd bd 41 57 9d bd
       -0.10412952 -0.05571125 -0.09261977 -0.07682658
0000b0 13 5d 02 be 6b c4 a2 bd 69 b4 bb bd 12 96 c8 bd
       -0.12730817 -0.0794762 -0.0916527 -0.09794249
0000c0 4a ae 03 be c0 bf f4 bd 83 4a 31 bd c0 49 dd bd
       -0.12859455 -0.11950636 -0.04328395 -0.10805082
0000d0 a5 80 b4 bc c7 5e 9a 3b fc 20 b1 3c 00 ab 57 3d
       -0.022033999 0.0047110054 0.021622173 0.052653313
0000e0 d5 43 52 bd 1e fa 16 bd 5a 3a f9 bd 20 a4 e4 bd
       -0.05133422 -0.036859624 -0.12169333 -0.11164117
0000f0 58 ff 22 bc 63 d4 87 bd e3 03 63 bd e8 c9 98 3c
       -0.009948574 -0.066323064 -0.05542363 0.018650964

net.4.bn1.running_mean f4 [64]
000000 ee 81 43 3e fe 9e 79 be 6a 4a 61 bf ff a6 2e bf
       0.19092533 -0.24377057 -0.8800417 -0.68223566
000010 bf 8d 74 be e4 a6 0b 3e d4 d0 69 bc 12 15 ab bd
       -0.23882197 0.13637882 -0.01427098 -0.08353628
000020 28 5d b7 3c f0 9d f0 3d 5a 5f 1f bf a1 49 73 bf
       0.022383288 0.11748874 -0.6225487 -0.95034224
000030 43 43 68 bf 77 81 19 be 22 a9 cd be 8c 79 36 bf
       -0.90727633 -0.14990793 -0.401681 -0.71279216
000040 f0 d3 5a 3c c6 9e 24 bf da 11 f1 bd f3 54 57 bf
       0.013356194 -0.6430477 -0.11770983 -0.84114
000050 7b 40 9e be 13 ea 68 bf a8 67 f9 bc 06 a1 16 bb
       -0.3090857 -0.9098217 -0.030444935 -0.002298416
000060 27 ea 83 bf 91 cb b7 be ac 2f 7d be 5a bc d0 be
       -1.0305833 -0.35897496 -0.24725217 -0.407687
000070 c2 d7 74 3e a6 51 06 bf 6c ce 35 bf 20 7d 80 be
       0.2391043 -0.52468336 -0.710181 -0.25095463
000080 17 94 7f 3e 94 b5 30 be 04 8f 1f be 4e ef 39 3f
       0.24958836 -0.17256767 -0.155819 0.72630775
000090 f2 47 28 bf 02 a5 0f be ac ac 12 bf ae 74 0c bf
       -0.6573478 -0.14027789 -0.57294726 -0.5486554
0000a0 84 f9 87 bf ac 5c 40 bf 8b a2 e5 be 94 02 01 be
       -1.0623021 -0.75141406 -0.44850573 -0.1259864
0000b0 c8 c2 b4 be 4b 87 6f bf 48 5f a5 be 4c d7 3f be
       -0.35304856 -0.93565816 -0.32299256 -0.18734473
0000c0 02 5c af 3d 11 21 98 be a8 fa d7 be 24 3e 65 bf
       0.08562471 -0.29712728 -0.42183423 -0.89547944
0000d0 67 1d 90 be 6f 0c 10 bf bb 72 07 be 6d 13 cc 3c
       -0.28147432 -0.5626897 -0.1322736 0.024911607
0000e0 93 71 5a bd ca c0 be bd 63 dc 83 be a5 27 6e bd
       -0.05333097 -0.09314115 -0.2575408 -0.058143277
0000f0 e1 d7 90 be b0 4d 5b bf 6d 44 f4 be 94 5f 9a be
       -0.28289703 -0.85665417 -0.47708455 -0.30151045

net.4.bn1.running_var f4 [64]
000000 0a 89 e6 3e 6b cd c3 3f c9 34 a2 3f 2b 00 94 3f
       0.45026428 1.5297064 1.2672359 1.1562551
000010 18 11 46 3f c1 a8 3c 3f 75 82 01 3f 89 87 27 3f
       0.77369833 0.73695 0.50589687 0.65441185
000020 b0 a5 3e 3f 7f 30 32 3f 89 9e b6 3f d8 dc 95 3f
       0.7447157 0.6960525 1.4267131 1.1708021
000030 ea 76 ef 3f bb 66 5d 3f 30 6d 66 3f 0d 80 ce 3f
       1.8708165 0.8648488 0.90010357 1.6132828
000040 a8 63 0b 3f ce 7c 76 3f af 24 17 3f 45 b1 80 3f
       0.5444894 0.96284187 0.5904035 1.0054098
000050 98 44 2e 3f 28 e5 57 3f 21 ed 5b 3f 9c 3b 2d 3f
       0.68073416 0.8433404 0.85908705 0.6766908
000060 45 67 eb 3f a1 ba 27 3f 10 71 21 3f 7f 50 33 3f
       1.839089 0.6551915 0.63063145 0.700447
000070 fa de 3c 3f 10 26 53 3f 5d c4 8a 3f 64 23 00 3f
       0.73777735 0.82479954 1.0841175 0.50054
000080 78 2b 16 3f f9 ed 16 3f a5 87 1a 3f 47 28 da 3f
       0.5866008 0.5895687 0.6036323 1.7043542
000090 83 82 6f 3f 85 1c 68 3f 4f 32 34 3f c3 35 a3 3f
       0.9355852 0.9066852 0.70389265 1.2750782
0000a0 67 f0 ae 3f d0 d6 be 3f 6f ef 6f 3f 0c 2a db 3e
       1.3667115 1.4909306 0.9372472 0.42805517
0000b0 34 8b 7e 3f 7c 42 af 3f f2 fe 37 3f 6b fe 66 3f
       0.9943116 1.3692164 0.7187339 0.9023196
0000c0 99 ba 19 3f 60 00 25 3f 4f d0 3e 3f cd bc 93 3f
       0.6005035 0.644537 0.74536604 1.1541992
0000d0 e3 64 44 3f ba 3c 52 3f 40 00 1a 3f d8 5b 37 3f
       0.7671644 0.8212391 0.6015663 0.7162452
0000e0 05 9c 23 3f d9 d9 2a 3f 6b de e3 3e 83 71 12 3f
       0.6390994 0.6673866 0.4450563 0.57204455
0000f0 47 a5 1e 3f 3e fd 3b 3f 8f 5d 15 3f b4 5e 4b 3f
       0.61970943 0.7343329 0.58345884 0.7944138
